saved_model_pc/etr_nlp.pth (torch, 40093 bytes, 83 tensors)

shared_branch.ops.1.weight f4 [3, 3, 3, 3]
0	0x3dcb15ae	0.099162444
1	0xbdadf6be	-0.08494328
2	0xbd18d0f8	-0.037308663
3	0x3db8fefe	0.09033011
4	0xbe398726	-0.18117961
5	0x3dec5f0a	0.11541565
6	0xbd222b10	-0.03959185
7	0x3dc883e2	0.0979078
8	0x3cdb2ad8	0.026753828
9	0xbcc10a18	-0.023564383
10	0x3d5aa308	0.053378135
11	0x3c1b8c50	0.009493902
12	0x3d8ff342	0.070288196
13	0xbd99988c	-0.07499799
14	0xbc65e380	-0.014031291
15	0xbc8deec8	-0.017325774
16	0x3ce482f8	0.027894482
17	0xba498a00	-0.0007688105
18	0x3e2c4565	0.16823347
19	0x3d754db4	0.059888557
20	0xbd92c785	-0.071669616
21	0xbdee0b43	-0.11623242
22	0xbd042098	-0.032257646
23	0xbdaa01f6	-0.08301155
24	0xbd7c9a0c	-0.061670348
25	0x3c16f9c0	0.0092148185
26	0x3deaf4da	0.11472483
27	0x3dd63a76	0.10460369
28	0xbe40a516	-0.18812975
29	0x3df45586	0.11930375
30	0x3d5c3738	0.0537636
31	0x3e3aee47	0.18254958
32	0x3e0213c7	0.12702857
33	0xbe338e91	-0.17534854
34	0xbe3b5ff0	-0.18298316
35	0xbdbe1af6	-0.09282486
36	0x3e2d0c6b	0.16899268
37	0xbd034d60	-0.032056212
38	0x3da8acca	0.08236082
39	0xbdb7290c	-0.08943376
40	0x3e415e17	0.18883549
41	0xbda6c253	-0.08142533
42	0x3e13c96f	0.1443231
43	0x3b155a00	0.002278924
44	0xbdcfa37f	-0.10138606
45	0x3dca97ba	0.09892221
46	0xbdd1375e	-0.102156386
47	0x3d67d5e8	0.05660048
48	0xbd639ec8	-0.055571347
49	0xbcacd820	-0.02109915
50	0xbe3d75ae	-0.18501922
51	0xbdbbeaee	-0.09175669
52	0x3dd5df62	0.104429975
53	0xbd3f9ca4	-0.046780244
54	0x3e444a57	0.19168983
55	0x3e1df7d9	0.15426578
56	0xbc13a3c0	-0.009011209
57	0xbe038a48	-0.12845719
58	0x3df003d6	0.11719482
59	0x3d74a59c	0.05972825
60	0xbdfec749	-0.124403544
61	0x3e000149	0.1250049
62	0x3def4822	0.1168368
63	0x3e2ec787	0.17068301
64	0xbddcf00f	-0.10787975
65	0xbd01c140	-0.03167844
66	0xbb745380	-0.0037281215
67	0x3ce64460	0.028108776
68	0xbe158f27	-0.1460539
69	0xbe0bd831	-0.13656689
70	0x3dd669aa	0.104693726
71	0xbd38d824	-0.045128003
72	0x3dc0869e	0.09400676
73	0x3c33c210	0.010971561
74	0x3d8169c2	0.06319
75	0x3d2d5538	0.0423176
76	0x3d8f4eea	0.069974735
77	0x3dc360da	0.09539957
78	0xbe368204	-0.17823035
79	0x3dc663ca	0.09687002
80	0xbe0a9050	-0.13531613

shared_branch.conv1x1.weight f4 [3, 3, 1, 1]
0	0xbedf090e	-0.43561596
1	0x3d0fd0c0	0.03511119
2	0xbdc97de0	-0.09838462
3	0x3ead9d6c	0.33909166
4	0xbeab31c6	-0.33436412
5	0xbf03649c	-0.5132539
6	0x3ed72182	0.42017752
7	0xbdaf5494	-0.08561054
8	0x3ea643a4	0.3247348

shared_branch.conv1x1.bias f4 [3]
0	0x3e3e1058	0.18560922
1	0xbeddaa68	-0.43294072
2	0x3ded8b78	0.11598867

task_0.weight f4 [3, 3, 3, 3]
0	0x3d3d5754	0.04622586
1	0xbe03f2fe	-0.12885663
2	0xbdbb01e9	-0.09131224
3	0x3d866432	0.065620795
4	0x3d0d32ac	0.034472153
5	0xbda7a7c9	-0.08186299
6	0xbd6e9fa0	-0.0582577
7	0x3e347df3	0.17626171
8	0xbd11d908	-0.035607368
9	0x3dde362a	0.10850175
10	0x3daaa9b6	0.08333151
11	0xbdfec602	-0.12440111
12	0xbe2797dc	-0.16366524
13	0x3e3d2a09	0.18473066
14	0x3c24a510	0.01004912
15	0x3e07151d	0.13191648
16	0x3d235b00	0.039881706
17	0x3d7d86fc	0.06189631
18	0x3e1333cb	0.14375226
19	0x3e3add15	0.18248399
20	0xbe02c56c	-0.12770623
21	0x3cc51d50	0.024061829
22	0x3e131069	0.14361729
23	0x3e0ec37d	0.1394176
24	0x3df4da82	0.119557396
25	0xbe0e9f5b	-0.13927977
26	0xbe0de8ff	-0.13858412
27	0xbdee5d04	-0.11638835
28	0x3cc60f40	0.024177194
29	0x3e446961	0.19180824
30	0xbdf8f79c	-0.12156603
31	0x3dd2074a	0.102552965
32	0xbdda268d	-0.10651884
33	0xbe39498a	-0.18094459
34	0xbd278a34	-0.040903285
35	0x3de3173a	0.110884145
36	0x3e36f42d	0.17866583
37	0xbdf4c65d	-0.11951897
38	0x3d2b108c	0.041763827
39	0x3e2a0afb	0.16605751
40	0x3e0296a1	0.12752773
41	0x3df5a2c2	0.11993934
42	0x3e0c0b27	0.1367613
43	0x3df94c72	0.12172784
44	0x3d4b9bd4	0.049709156
45	0xbe06c27a	-0.13160124
46	0xbe257d83	-0.1616116
47	0xbdb49a20	-0.088184595
48	0xbcb79538	-0.02241002
49	0xbdf1966f	-0.11796271
50	0x3d90325e	0.07040857
51	0x3d73f634	0.05956097
52	0xbd327e50	-0.043577492
53	0x3d977bb6	0.07396643
54	0x3d7ec234	0.062196925
55	0x3df0a2ee	0.11749826
56	0x3e04b6fd	0.1296043
57	0xbd8579d0	-0.065173745
58	0x3e408a97	0.18802868
59	0xbcb642f0	-0.022248715
60	0xbbd8a7e0	-0.006611809
61	0xbe3a0268	-0.1816498
62	0xbdfdac68	-0.123863995
63	0xbde641b5	-0.11243001
64	0xbda894ef	-0.08231532
65	0x3e0c1c29	0.13682617
66	0xbd80cbf8	-0.06288904
67	0xbe134410	-0.14381433
68	0x3d97a4fa	0.07404514
69	0x3d7c61c4	0.061616674
70	0x3dff4786	0.12464814
71	0xbdcbf490	-0.09958756
72	0x3d2ae8f4	0.041726068
73	0xbd8f7c72	-0.07006158
74	0xbd311b08	-0.04323867
75	0xbe1d0c3e	-0.15336701
76	0xbdb3a1f3	-0.08771124
77	0xbd716a5c	-0.058939323
78	0x3da88c16	0.08229844
79	0x3d100278	0.035158604
80	0x3d42b790	0.04753834

task_0.bias f4 [3]
0	0x3e44b20b	0.19208543
1	0x3e40119b	0.18756716
2	0x3e066907	0.13126002

task_1.weight f4 [3, 3, 3, 3]
0	0x3bc8cfe0	0.0061282963
1	0xbe0854a0	-0.13313532
2	0x3e1a02e1	0.1504016
3	0xbd451e70	-0.04812473
4	0xbc7ee9e0	-0.01555869
5	0xbe29c64f	-0.16579555
6	0xbd1bb4fc	-0.038014397
7	0xbdfe36cd	-0.12412796
8	0x3e351679	0.17684354
9	0xbe2a5ec6	-0.16637716
10	0xbe199c9f	-0.15001152
11	0xbbd622a0	-0.0065348893
12	0xbdd51dcc	-0.10406074
13	0x3d8d06f2	0.0688609
14	0xbd97b6b7	-0.07407897
15	0xbdb91f23	-0.09039142
16	0x3c329590	0.010899916
17	0x3e0ea863	0.13931422
18	0xbe0a9f79	-0.13537396
19	0x3db916ee	0.090375766
20	0x3dfd35de	0.1236379
21	0x3e40c5b1	0.18825413
22	0xbe09ef42	-0.13470176
23	0x3d3ee990	0.04660946
24	0xbe11b7d1	-0.14230277
25	0x3e283f63	0.1643043
26	0xbd98e377	-0.074652605
27	0x3ded68f6	0.11592285
28	0x3bbbbea0	0.0057295114
29	0xbc759270	-0.014988527
30	0xbbc937a0	-0.006140664
31	0x3d0600a4	0.032715455
32	0x3db9cb86	0.09072022
33	0x3cfcd8d8	0.030865118
34	0x3d7077a4	0.05870785
35	0xbe3144b2	-0.17311361
36	0x3e0f9273	0.1402071
37	0x3e2bd139	0.16779031
38	0x3e22e5f7	0.15908037
39	0x3e11ad83	0.14226346
40	0xbe0e360b	-0.13887803
41	0xbd921b5c	-0.07134125
42	0x3e2dc2b9	0.16968812
43	0xbe161966	-0.14658126
44	0x3e32c8fb	0.1745948
45	0xbe1afe70	-0.15136123
46	0xbe0ad128	-0.1355635
47	0x3dc0af6e	0.094084606
48	0xbe0d9783	-0.13827328
49	0xbd349830	-0.04409045
50	0x3e0f5db3	0.14000587
51	0x3e1c1899	0.15243758
52	0x3e3a6109	0.18201078
53	0xbd1ff474	-0.039051488
54	0xbe192c86	-0.1495839
55	0x3e420943	0.18948846
56	0xbd27ec60	-0.04099691
57	0xbda22981	-0.079180725
58	0x3d402934	0.046914294
59	0xbe09d0aa	-0.13458505
60	0x3e01878d	0.12649365
61	0x3df704de	0.12061475
62	0xbe1c5ed7	-0.15270554
63	0xbe21ddf0	-0.15807319
64	0xbc8a19a8	-0.016857937
65	0x3da58c42	0.08083393
66	0xbbb6a420	-0.0055737644
67	0xbdc7dbc2	-0.09758712
68	0x3b902ce0	0.0043998808
69	0xbe393b3d	-0.18089004
70	0xbe0b47d6	-0.13601622
71	0xbe032fc9	-0.12811197
72	0x3e224acf	0.1584885
73	0x3e2db7a7	0.16964589
74	0xbd85e020	-0.06536889
75	0x3c0d6af0	0.008631453
76	0x3dafc6da	0.0858285
77	0x3cbce5f0	0.023058861
78	0xbdc55d92	-0.09636988
79	0x3de3507a	0.11099334
80	0x3df24a3a	0.11830564

task_1.bias f4 [3]
0	0xbc36bd60	-0.011153549
1	0xbcc213d8	-0.023691103
2	0x3e3315dd	0.17488809

task_2.weight f4 [3, 3, 3, 3]
0	0x3e2c437b	0.16822617
1	0xbddf77b1	-0.10911501
2	0x3e40cf4d	0.18829079
3	0x3d431398	0.047626108
4	0xbe02e7b8	-0.12783706
5	0x3dd7c186	0.105349585
6	0xbe13206a	-0.14367834
7	0x3e3613dd	0.17781015
8	0xbdfd6209	-0.12372214
9	0x3d5ef248	0.054430276
10	0x3d7007b4	0.058601096
11	0x3d3b7f64	0.045775786
12	0x3e23740d	0.15962239
13	0xbda3b476	-0.079934046
14	0xbda664ad	-0.08124671
15	0xbe2ac637	-0.16677175
16	0xbc016700	-0.007898092
17	0xbdbab60f	-0.09116756
18	0x3bfcaf40	0.007711321
19	0xbd219864	-0.03945197
20	0x3d82c5be	0.063853726
21	0x3e2a7ac9	0.16648401
22	0x3d689a58	0.05678782
23	0xbd7def6c	-0.06199591
24	0xbdc166e4	-0.09443453
25	0xbe2bdfce	-0.16784593
26	0x3e25d2b1	0.16193654
27	0xbd1554c0	-0.036457777
28	0x3d1f1e10	0.03884703
29	0x3be94600	0.0071189404
30	0xbdfb2bca	-0.122642115
31	0x3dddf89a	0.108384326
32	0x3ddce1d6	0.10785262
33	0x3c1eca40	0.009691775
34	0xbddffbf0	-0.10936725
35	0xbda778c5	-0.08177332
36	0x3b2dafc0	0.002650246
37	0xbde12f83	-0.1099539
38	0xbddbe995	-0.107379116
39	0xbceb2b68	-0.028707221
40	0xbd62fbf8	-0.055416077
41	0x3d4181a8	0.04724279
42	0xbd4f31d8	-0.050584644
43	0xbcd0fe18	-0.025511786
44	0xbd966f64	-0.07345465
45	0xbe3417ef	-0.17587255
46	0x3e2bde7d	0.16784091
47	0x3d166398	0.036716074
48	0x3e30394d	0.17209359
49	0xbcfe1420	-0.031015456
50	0xbd461a90	-0.048365176
51	0xbe394404	-0.18092352
52	0xbd959e71	-0.07305611
53	0x3e013b75	0.12620337
54	0xbe4104ac	-0.18849438
55	0xbd89db14	-0.06731239
56	0x3df021d2	0.11725201
57	0x3de328d2	0.1109177
58	0x3d918896	0.0710613
59	0xbd1c0908	-0.03809455
60	0xbc6ebd40	-0.014571488
61	0xbd15b2ec	-0.036547586
62	0xbd914b8d	-0.07094488
63	0x3da47bbe	0.080314144
64	0xbd863e96	-0.06554906
65	0xbddd6b40	-0.10811472
66	0x3d32d418	0.0436593
67	0xbe0e714c	-0.13910407
68	0xbd283acc	-0.041071698
69	0x3dc968e6	0.09834461
70	0x3d934d0a	0.071924284
71	0x3e27c5b3	0.1638401
72	0xbe066906	-0.13126001
73	0x3adb5180	0.0016732663
74	0xbd68c7ac	-0.056831047
75	0xbddc72a7	-0.10764056
76	0xbdddb93e	-0.10826348
77	0x3d469854	0.048485115
78	0x3ca4f230	0.020135015
79	0xbdc92fe1	-0.09823585
80	0xbe0ae7e8	-0.13565028

task_2.bias f4 [3]
0	0xbe2346f2	-0.15945032
1	0x3e4123e7	0.18861352
2	0xbd065ba4	-0.03280224

task_3.weight f4 [3, 3, 3, 3]
0	0xbd3646f0	-0.044501245
1	0xbd90ee7a	-0.07076736
2	0xbdc5225e	-0.09625696
3	0xbe3438ce	-0.17599794
4	0xbde761d4	-0.11297956
5	0x3df0e882	0.11763097
6	0x3d2cc55c	0.042180404
7	0xbd8b0917	-0.06788843
8	0xbd94f316	-0.072729275
9	0x3dfbc7da	0.12293978
10	0x3e0e0e59	0.1387266
11	0x3e3ddce9	0.18541302
12	0x3d65f1c4	0.05613877
13	0x3dbe6992	0.0929748
14	0xbc7d58a0	-0.015463024
15	0xbde66d4f	-0.11251318
16	0xbe411096	-0.18853983
17	0x3df0112a	0.11722024
18	0xbce52598	-0.027972028
19	0x3da1ee0e	0.079067335
20	0x3c1b3380	0.009472728
21	0xbe37edb5	-0.17961772
22	0xbdc15caa	-0.094415024
23	0x3d5dc470	0.054142416
24	0xbd1f8c1c	-0.038951978
25	0xbe3e4d52	-0.18584183
26	0x3d8a354a	0.06748445
27	0x3bf1daa0	0.0073807985
28	0xbd7d5624	-0.06184973
29	0x3d9f386e	0.07774435
30	0x3d266b9c	0.040629968
31	0xbd915bf5	-0.070976175
32	0x3e310957	0.17288719
33	0x3dc5bb1a	0.096548274
34	0x3cc5f4b8	0.024164543
35	0xbd1763b4	-0.03696032
36	0xbe26ecda	-0.16301289
37	0x3e182707	0.14858638
38	0xbd4b6824	-0.049659863
39	0xbdfeb3b1	-0.12436617
40	0x3dfcb3c2	0.123389736
41	0x3d8bfa7a	0.06834884
42	0x3d4312d4	0.047625378
43	0xbd1c4cb4	-0.038159087
44	0xbd75ff54	-0.060057953
45	0x3d05c4e8	0.032658488
46	0x3e188067	0.14892732
47	0x3ce1c4c0	0.027559638
48	0xbdba5e03	-0.090999626
49	0x3e43c413	0.19117765
50	0x3b86df20	0.004115954
51	0x3e1bc953	0.15213518
52	0x3d401e50	0.04690391
53	0x3e30a4db	0.17250387
54	0x3de3683e	0.11103867
55	0xbdc8f130	-0.09811628
56	0x3e0a6e9d	0.13518758
57	0x3aa24680	0.001238063
58	0xbe1e30cc	-0.15448302
59	0xbd252e14	-0.040327147
60	0xbe31e074	-0.17370778
61	0xbdcc3422	-0.09970881
62	0xbe0b9c55	-0.13633855
63	0x3e06c91d	0.13162656
64	0xbd259b7c	-0.040431485
65	0xbd083224	-0.033250943
66	0x3dbce07a	0.09222503
67	0x3da0670a	0.07832153
68	0xbe020f24	-0.12701088
69	0x3d9140e2	0.070924535
70	0x3da7704a	0.08175714
71	0xbe1cb0fb	-0.15301888
72	0x3e2b56c7	0.16732322
73	0xbdefd349	-0.11710221
74	0xbd9a20be	-0.07525776
75	0xbe2252a4	-0.15851837
76	0x3e341ddb	0.17589514
77	0x3d1619fc	0.036645874
78	0x3e25f059	0.16204967
79	0x3c4de670	0.012567148
80	0x3dd63b2a	0.104605034

task_3.bias f4 [3]
0	0xbd7baf5c	-0.061446533
1	0xbe1d377e	-0.153532
2	0x3cfd1478	0.03089355

task_4.weight f4 [3, 3, 3, 3]
0	0xbc8c9838	-0.017162427
1	0xbc9f2ed0	-0.019431502
2	0xbdc19122	-0.0945151
3	0x3b828cc0	0.003984064
4	0x3d626144	0.05526854
5	0x3d8e2f36	0.069425985
6	0xbe1ec06d	-0.15503092
7	0x3dbe6a7a	0.092976525
8	0x3ca21f10	0.019790202
9	0x3e07ec01	0.13273622
10	0x3e0b4575	0.13600715
11	0xbe1b31d4	-0.15155727
12	0x3e3d3fcd	0.1848137
13	0xbe41cebc	-0.18926519
14	0x3de2938a	0.11063297
15	0x3c5dedb0	0.013545439
16	0x3dba826e	0.09106909
17	0xbdd522ef	-0.10407054
18	0x3decf446	0.11570029
19	0xbdc30844	-0.09523061
20	0xbe2e303b	-0.17010586
21	0x3d840c9a	0.06447716
22	0x3dd7bc2e	0.10533939
23	0x3e4358b3	0.19076805
24	0xbca4c508	-0.020113483
25	0x3e3d9379	0.18513288
26	0x3dfd3582	0.123637214
27	0xbdc37a6a	-0.09544833
28	0xbe18020c	-0.14844531
29	0x3ddd0ebe	0.107938275
30	0xbdd7f047	-0.10543876
31	0x3db4c9fa	0.088275865
32	0xbe28c6ef	-0.16482137
33	0x3e0fc689	0.14040579
34	0x3d6c429c	0.05768071
35	0xbcb53ea8	-0.022124603
36	0x3db4c33e	0.08826302
37	0xbe0c4d72	-0.13701418
38	0xbd2c5290	-0.042070925
39	0x3af74a00	0.0018866658
40	0xbde3be4c	-0.111202806
41	0xbd496c00	-0.049175262
42	0xbda9f94d	-0.082995035
43	0x3e3bd055	0.18341191
44	0x3e276ac5	0.16349323
45	0x3e29f7d3	0.16598444
46	0x3e211253	0.15729646
47	0xbe3cbbf7	-0.18431078
48	0x3d83d70a	0.064375
49	0x3d914656	0.07093494
50	0xbe108bbc	-0.14115804
51	0x3d9fc296	0.07800786
52	0xbdd5dda2	-0.10442664
53	0x3cfab2b0	0.030602783
54	0x3d828cce	0.063745126
55	0x3e2a0cbd	0.16606422
56	0xbdcec53e	-0.10096215
57	0xbe1b0c82	-0.1514149
58	0x3e3656f1	0.17806603
59	0x3da57246	0.080784366
60	0x3dbf91d2	0.09353985
61	0x3d8de02a	0.069275215
62	0xbd8b8262	-0.06811978
63	0x3ded17ce	0.11576806
64	0xbe2c0c44	-0.16801554
65	0x3cdb6660	0.026782215
66	0x3db22a7a	0.08699508
67	0x3e06a573	0.13149051
68	0xbdc4d227	-0.09610396
69	0xbe053263	-0.13007502
70	0x3d93bc06	0.07213597
71	0xbe1c814b	-0.15283696
72	0xbe23c6d6	-0.15993819
73	0xbe313a48	-0.17307389
74	0xbdbf218f	-0.09332573
75	0xbd1676dc	-0.036734447
76	0xbde967e1	-0.113967665
77	0xbda6a6da	-0.08137293
78	0xbe2e807f	-0.17041205
79	0x3df24116	0.118288204
80	0xbd3475b8	-0.044057578

task_4.bias f4 [3]
0	0xbdf8adf0	-0.12142551
1	0x3d4d3b44	0.05010535
2	0xbe135998	-0.14389646

task_5.weight f4 [3, 3, 3, 3]
0	0x3e09f241	0.13471319
1	0x3de2a2a6	0.11066179
2	0xbe41a971	-0.18912293
3	0xbe1ab03f	-0.15106295
4	0xbe01f14e	-0.12689707
5	0xbdd55bec	-0.10417923
6	0x3cc4d9e0	0.024029672
7	0xbe42df77	-0.19030558
8	0xbe1219b0	-0.14267612
9	0x3db3ff32	0.08788909
10	0xbd8115c6	-0.06302981
11	0xbd9cd615	-0.076580204
12	0xbe23080a	-0.15921035
13	0x3d9fbfa2	0.07800223
14	0x3c5ea8f0	0.0135900825
15	0xbd98589d	-0.07438777
16	0xbdf15d16	-0.11785333
17	0x3d27a4f8	0.04092881
18	0x3d567bb8	0.05236408
19	0x3daef142	0.0854211
20	0x3d6a4280	0.057192326
21	0xbcf07ed8	-0.029357359
22	0xbe188d80	-0.14897728
23	0x3dfae952	0.122515336
24	0xbad83b00	-0.0016497076
25	0xbe02f830	-0.12789989
26	0x3e29f343	0.16596703
27	0x3ddbc02a	0.10730012
28	0xbe1ae1db	-0.1512522
29	0xbdc4d6d2	-0.09611286
30	0xbd862076	-0.0654916
31	0xbde38776	-0.111098215
32	0x3db80ea2	0.08987166
33	0xbe0c967c	-0.1372928
34	0x3e372653	0.17885713
35	0xbda2e923	-0.079546236
36	0x3de8a65e	0.11359857
37	0x3bd6c1c0	0.0065538585
38	0xbdad569a	-0.084637836
39	0x3e039967	0.12851487
40	0xbe165ec5	-0.14684589
41	0xbdd087fc	-0.10182187
42	0x3cbcf750	0.023067147
43	0x3e1c546b	0.15266578
44	0xbda8ded5	-0.08245627
45	0xbdf000ae	-0.1171888
46	0xbdfb9fb1	-0.12286318
47	0xbdadc42d	-0.08484683
48	0xbd88261e	-0.06647895
49	0xbd379b2c	-0.044825718
50	0xbde0382d	-0.10948215
51	0x3d765f2c	0.060149357
52	0x3accdd00	0.0015629828
53	0xbe00c230	-0.12574077
54	0xbde11401	-0.109901436
55	0x3d26eb40	0.040751696
56	0xbb342c40	-0.0027492195
57	0x3e0b799d	0.1362061
58	0xbceeffb8	-0.02917467
59	0xbe1fa557	-0.15590416
60	0xbe11c12e	-0.14233848
61	0xbd6760ec	-0.056488916
62	0xbd2e95c0	-0.04262328
63	0x3cb3eb90	0.02196291
64	0xbd30c974	-0.04316087
65	0x3d916d6e	0.0710095
66	0xbd831576	-0.06400578
67	0x3e10a3b5	0.1412495
68	0x3d350e98	0.04420337
69	0xbd725818	-0.059166044
70	0x3e2fa0c1	0.17151166
71	0x3d493df4	0.04913135
72	0xbe05ed12	-0.13078716
73	0xbddb5ad8	-0.107106864
74	0x3df7215a	0.12066908
75	0x3db402ce	0.087895975
76	0x3e19dec7	0.15026389
77	0xbc723530	-0.014783189
78	0x3e09d583	0.13460355
79	0x3dc3f4f2	0.09568204
80	0x3d73c7a4	0.059516564

task_5.bias f4 [3]
0	0xbd367174	-0.04454179
1	0x3e3df8df	0.18551968
2	0x3d1f84b4	0.038944915

task_6.weight f4 [3, 3, 3, 3]
0	0xbd4b62cc	-0.049654767
1	0xbb335180	-0.002736181
2	0x3e41ba6f	0.18918775
3	0x3e045c8b	0.12925927
4	0xbc69aa20	-0.014261752
5	0x3e413315	0.18867142
6	0x3dad1472	0.08451165
7	0xbdd1d87f	-0.102463715
8	0xbe3358a6	-0.17514285
9	0x3de50c76	0.11184017
10	0x3e38d151	0.18048598
11	0xbde5a26e	-0.11212622
12	0x3da1e1a2	0.07904364
13	0x3c063b50	0.008192852
14	0xbd288c10	-0.0411492
15	0xbd565720	-0.052329183
16	0x3d5b4cac	0.053539917
17	0x3d2dc7c0	0.042426825
18	0x3e051a1f	0.12998246
19	0x3d90489e	0.07045101
20	0x3db35af2	0.08757581
21	0x3e2dd87f	0.16977118
22	0x3d75751c	0.059926137
23	0x3cea06f8	0.028567776
24	0xbd8f7dd7	-0.07006424
25	0x3e10873b	0.14114086
26	0x3ce8d3c8	0.028421298
27	0x3dfe0c7e	0.124047264
28	0x3e3e4c83	0.18583874
29	0xbd304cd8	-0.043042034
30	0x3e0ac1a1	0.13550426
31	0xbd20155c	-0.03908287
32	0x3e31d741	0.17367269
33	0x3e1b1cad	0.15147658
34	0xbd8d45e5	-0.06898097
35	0x3be22a40	0.0069020092
36	0xbdac1f81	-0.084044464
37	0xbd9f686e	-0.0778359
38	0xbd1f99a4	-0.038964882
39	0xbaabf980	-0.0013120621
40	0xbd8964ca	-0.06708677
41	0xbe3a0860	-0.18167257
42	0xbdee62a5	-0.11639909
43	0xbc86b8f8	-0.016445622
44	0xbd7ba438	-0.061435908
45	0x3e125fbd	0.14294334
46	0x3e203057	0.1564344
47	0x3dfb1726	0.122602746
48	0x3dae7026	0.08517484
49	0xbe1c3aa1	-0.1525674
50	0x3e3a2f09	0.18182005
51	0xbe2da8bb	-0.16958897
52	0xbd819352	-0.06326927
53	0xbe0ab33c	-0.13544935
54	0x3d8dbb62	0.06920506
55	0xbe23fbed	-0.16014071
56	0xbdc24ec8	-0.094876826
57	0xbdfa5c60	-0.122246504
58	0xbdf24559	-0.11829633
59	0xbdb7fda8	-0.08983928
60	0x3e41b8eb	0.18918197
61	0xbc80c510	-0.015718967
62	0x3d7049ec	0.058664247
63	0xbe43a08c	-0.19104213
64	0x3e2f3787	0.17111026
65	0xbd2ba6e8	-0.04190722
66	0xbe34dbd7	-0.17661987
67	0x3e07cfd7	0.13262878
68	0xbd552514	-0.052037314
69	0x3e32f6ed	0.17477007
70	0xbe05db04	-0.13071829
71	0xbe36f716	-0.17867693
72	0xbe140c7a	-0.14457884
73	0x3daabb62	0.08336522
74	0xbcb0ce28	-0.021582678
75	0xbe369184	-0.17828947
76	0x3d1228e0	0.035683513
77	0xbc48fc00	-0.012267113
78	0x3d8e63d6	0.06952636
79	0xbdc87d71	-0.09789551
80	0xbe0caf6b	-0.13738792

task_6.bias f4 [3]
0	0x3e0651a5	0.13117082
1	0xbdbda8cd	-0.09260712
2	0x3e0aa009	0.13537611

task_7.weight f4 [3, 3, 3, 3]
0	0x3e1fc8db	0.15603964
1	0xbe09d116	-0.13458666
2	0xbdb5b6a1	-0.08872724
3	0x3cbdc948	0.023167267
4	0xbe39cf40	-0.18145466
5	0x3d7215e4	0.059102908
6	0xbda438e4	-0.080186635
7	0xbdaec07e	-0.08532809
8	0xbe1858f0	-0.14877677
9	0x3db8628a	0.0900317
10	0xbdfb29c5	-0.12263826
11	0xbe1d847d	-0.15382572
12	0xbd4f4c18	-0.050609678
13	0xbddb6ad1	-0.10713733
14	0xbe3f9708	-0.18709958
15	0x3d9ed7de	0.07756017
16	0xbd95f4b8	-0.07322067
17	0x3e0a0a3b	0.13480465
18	0x3e0ab85d	0.13546892
19	0xbdfb5e98	-0.12273902
20	0xbde5c581	-0.112193115
21	0xbd8be6e7	-0.068311505
22	0x3de6de42	0.11272861
23	0xbbd91420	-0.0066247135
24	0xbd8ccdbc	-0.06875178
25	0x3df42926	0.11921911
26	0x3e3ae3b9	0.18250932
27	0x3e11b14b	0.14227788
28	0xbe16b31e	-0.14716765
29	0xbd23b970	-0.03997177
30	0xbd17336c	-0.036914274
31	0x3e282ddb	0.16423742
32	0xbdcbd9f2	-0.09953679
33	0xbde1e46d	-0.11029897
34	0x3b455480	0.003011018
35	0xbd371d8c	-0.044705912
36	0x3d953026	0.07284574
37	0x3cbfa1f8	0.023392662
38	0xbdeb523b	-0.114902936
39	0x3e0f4c65	0.13993986
40	0x3df557a2	0.11979605
41	0x3d2c9f24	0.042143956
42	0xbe325f31	-0.17419125
43	0x3db93682	0.090436
44	0x3e02f1e5	0.12787588
45	0x3d5b74ec	0.053578302
46	0xbd9859ef	-0.074390285
47	0x3c5377f0	0.012907013
48	0xbd976969	-0.07393152
49	0x3e398805	0.18118294
50	0x3e3e4af9	0.18583287
51	0xbcb7b8f0	-0.022427052
52	0xbe049663	-0.12947993
53	0x3de7da42	0.11320926
54	0x3dc92932	0.098223105
55	0x3dd0ec4e	0.102013215
56	0xbe1448f9	-0.14480962
57	0x3d85a58e	0.06525718
58	0xbda832cc	-0.08212814
59	0xbe2d36d7	-0.16915451
60	0xbe099bd0	-0.13438344
61	0x3da713de	0.08158086
62	0x3d938e8a	0.072049215
63	0xbe2cf5f9	-0.16890706
64	0x3ddf81a2	0.10913397
65	0x3e170087	0.14746295
66	0x3e1599bd	0.14609428
67	0x3dde8c0a	0.10866554
68	0xbcf77c40	-0.030210614
69	0x3e040c93	0.12895422
70	0x3e1a47ff	0.15066527
71	0x3dcd74ee	0.10032068
72	0xbe0dbdeb	-0.13841979
73	0xbd898e90	-0.06716645
74	0x3e1c1f23	0.15246253
75	0x3e163d9b	0.14671938
76	0x3dfb7db2	0.12279834
77	0xbda4bbe4	-0.0804365
78	0xbd1c1dd8	-0.0381144
79	0xbe12d176	-0.14337716
80	0xbde09e99	-0.1096775

task_7.bias f4 [3]
0	0x3e1746d9	0.1477312
1	0xbe21bfff	-0.15795897
2	0xbd42cd84	-0.047559276

task_8.weight f4 [3, 3, 3, 3]
0	0x3d27538c	0.04085116
1	0xbdec7cce	-0.11547242
2	0x3d37bf60	0.044860244
3	0xbcfd7008	-0.03093721
4	0x3d9da002	0.07696535
5	0xbe173a39	-0.14768304
6	0x3cd99208	0.026558891
7	0xbe33ac36	-0.17546162
8	0x3df48526	0.119394585
9	0x3e3f6d45	0.18694027
10	0xbd8cad33	-0.06868973
11	0x3ce91ff8	0.028457627
12	0xbdcb105b	-0.09915229
13	0xbdfc1fc4	-0.12310746
14	0xbdc79d08	-0.09746748
15	0xbdbbc41a	-0.09168263
16	0x3d15a1cc	0.036531255
17	0xbcb4b730	-0.022060007
18	0x3c5d1570	0.013493881
19	0xbe170520	-0.14748049
20	0xbdf79f2c	-0.120909065
21	0xbe2a9b49	-0.16660799
22	0xbe0da45d	-0.13832231
23	0x3e250761	0.16116096
24	0x3d926e92	0.07149996
25	0xbe3bf1c5	-0.18353947
26	0xbd039108	-0.032120734
27	0x3c7d0e10	0.015445247
28	0x3dd28ee2	0.10281159
29	0x3e36c5cb	0.1784889
30	0x3d3e5974	0.046472028
31	0x3e0ad27b	0.13556854
32	0xbd8c406a	-0.068482235
33	0xbbce0ca0	-0.006288126
34	0xbdeded81	-0.11617566
35	0x3d359868	0.0443348
36	0x3e35e7d3	0.17764215
37	0x3df7829a	0.12085457
38	0x3e44197d	0.19150348
39	0xbdb19816	-0.08671586
40	0xbcc54310	-0.02407983
41	0x3d2299b0	0.03969735
42	0x3e1e7021	0.15472461
43	0xbe352761	-0.17690803
44	0xbdc190bf	-0.09451436
45	0x3ce4b200	0.027916908
46	0xbde3d026	-0.111236855
47	0x3d933bfe	0.07189177
48	0xbc56f670	-0.013120279
49	0xbd4c43a8	-0.04986921
50	0x3dd36122	0.10321261
51	0x3e0cd6ed	0.13753863
52	0x3e3fafc9	0.187194
53	0x3db27b5a	0.08714934
54	0xbbac7540	-0.0052630007
55	0x3e211ff5	0.15734847
56	0x3e1cd5fb	0.15316002
57	0xbdc58858	-0.09645146
58	0x3db38762	0.087660566
59	0x3cb8bc68	0.022550777
60	0xbdaa55d9	-0.083171554
61	0xbd3bb98c	-0.04583125
62	0xbd3a2340	-0.045443773
63	0xbe09e752	-0.13467148
64	0xbd708bfc	-0.05872725
65	0x3d84a15a	0.06476088
66	0x3e10abf7	0.141281
67	0x3c6f82b0	0.014618561
68	0xbe3ed782	-0.18636897
69	0x3dd0bd86	0.10192399
70	0xbd6e8530	-0.058232486
71	0x3e2ffe1b	0.17186777
72	0xbe3e6c79	-0.18596067
73	0xbd386e24	-0.045026913
74	0x3e18d4d3	0.14924936
75	0x3daa811e	0.083254084
76	0xbdc4a379	-0.096014924
77	0xbe2aa4b4	-0.16664392
78	0xbb0776c0	-0.0020670146
79	0x3d984282	0.0743456
80	0xbe239b24	-0.1597715

task_8.bias f4 [3]
0	0xbe24e86e	-0.1610429
1	0xbb1ec500	-0.0024226308
2	0xbd21aa64	-0.039469138

task_9.weight f4 [3, 3, 3, 3]
0	0x3dfd541e	0.1236956
1	0xbe3ef264	-0.18647152
2	0xbcfac220	-0.030610144
3	0xbe18b6e0	-0.14913511
4	0xbce59f98	-0.028030202
5	0xbdc95fbd	-0.09832714
6	0x3d78162c	0.06056802
7	0xbe24dbe7	-0.16099511
8	0xbe1b06c5	-0.15139301
9	0xbddfab69	-0.10921366
10	0xbe2c99aa	-0.16855493
11	0x3df8ce72	0.12148751
12	0xbce19f20	-0.027541697
13	0xbddafa45	-0.106922664
14	0x3e0a1781	0.13485529
15	0xbd32d764	-0.043662444
16	0x3dcbd826	0.099533364
17	0xbd745b6c	-0.0596575
18	0xbe24e0a7	-0.16101323
19	0x3d2d207c	0.042267308
20	0x3df56d1a	0.119837
21	0xbe402601	-0.18764497
22	0x3ca41cf8	0.020033345
23	0x3d1d1cb4	0.03835745
24	0x3cb4f308	0.022088543
25	0xbb9c0d60	-0.0047623366
26	0xbd750818	-0.059822172
27	0xbe18fddc	-0.1494059
28	0x3d009268	0.031389624
29	0xbe045abd	-0.12925239
30	0xbe22d3e4	-0.15901142
31	0xbd7d1404	-0.061786667
32	0xbe06e79d	-0.13174291
33	0x3d719b54	0.058986023
34	0x3e0c5f59	0.13708247
35	0x3e1927ed	0.14956637
36	0xbdf44b94	-0.11928478
37	0x3dd6e1ea	0.104923084
38	0x3e0c0a2f	0.1367576
39	0x3b0d7b80	0.0021588504
40	0x3da64842	0.08119251
41	0x3ddf04fa	0.10889621
42	0x3e16c96d	0.14725275
43	0x3dd2e47e	0.10297488
44	0x3da83c5a	0.08214636
45	0xbd95983c	-0.07304427
46	0xbddbbf2c	-0.107298225
47	0xbdbae4e9	-0.091256924
48	0x3e22251f	0.15834473
49	0xbd3eece8	-0.04661265
50	0x3be18d60	0.0068833083
51	0xbe37c895	-0.1794761
52	0xbc0c0f60	-0.008548588
53	0xbd5e5f5c	-0.05429016
54	0xbdfe5013	-0.12417617
55	0x3e189f61	0.14904548
56	0xbe1f8c9c	-0.15580982
57	0xbce15e08	-0.027510658
58	0xbc5f9100	-0.013645411
59	0xbe326840	-0.1742258
60	0x3dee4d1e	0.11635803
61	0xbd7ad1d8	-0.06123528
62	0x3db110ca	0.086457804
63	0x3ddbf9ca	0.10741003
64	0x3e2dc5e9	0.16970028
65	0x3d42fac4	0.04760243
66	0x3e13f259	0.14447917
67	0x3e36009f	0.17773674
68	0x3d1c3b68	0.03814259
69	0xbd209d48	-0.039212495
70	0xbd57d470	-0.05269283
71	0x3cff6a38	0.031178579
72	0x3d8dd6be	0.069257244
73	0xbe39e946	-0.18155393
74	0x3e13a7b3	0.14419441
75	0x3cf89c80	0.030348063
76	0xbe37935a	-0.17927304
77	0x3d7c7ddc	0.061643466
78	0x3dfa200e	0.12213145
79	0x3d9345be	0.07191037
80	0x3e20dcb1	0.15709187

task_9.bias f4 [3]
0	0x3b825f20	0.003978625
1	0xbe237d9d	-0.15965886
2	0xb9e4e200	-0.00043655932

task_10.weight f4 [3, 3, 3, 3]
0	0x3e0f3d51	0.13988234
1	0xbdbd9301	-0.092565544
2	0x3da81ca6	0.08208589
3	0x3d35b56c	0.04436247
4	0xbcffcbd8	-0.03122513
5	0x3ab34480	0.0013677031
6	0x3da7afa6	0.08187799
7	0xbe06db18	-0.13169515
8	0x3df8d9da	0.12150927
9	0x3e056a75	0.13028891
10	0x3ddd2b26	0.107992455
11	0x3e44ecf7	0.1923102
12	0xbc09af50	-0.008403614
13	0xbe0b2873	-0.13589649
14	0x3c0ffa70	0.008787736
15	0xbd64b270	-0.055834234
16	0x3d8b22a2	0.06793715
17	0x3e26b2d9	0.16279162
18	0xbdd7b990	-0.1053344
19	0x3c0409a0	0.008058935
20	0x3e3fad25	0.18718393
21	0xbe1d51cd	-0.15363236
22	0xbd080700	-0.0332098
23	0x3e3f5d93	0.1868804
24	0x3e09b30b	0.13447206
25	0x3d64ca18	0.055856794
26	0xbda9fdf8	-0.08300394
27	0xbc92f6d8	-0.01793997
28	0xbe30b76e	-0.17257473
29	0xbe3988be	-0.18118569
30	0xbe38a404	-0.18031317
31	0x3e3d4779	0.18484296
32	0x3e1bde23	0.15221457
33	0x3d9c57d6	0.07633941
34	0xbd45fe90	-0.048338473
35	0x3e29acb9	0.16569795
36	0xbd5037c0	-0.050834417
37	0x3e08cf99	0.13360442
38	0xbbcd3ee0	-0.006263599
39	0xbdb96804	-0.090530425
40	0xbd5c0150	-0.05371219
41	0xbd2851a4	-0.041093484
42	0xbe346263	-0.17615657
43	0x3d6bb9cc	0.057550237
44	0xbd702c08	-0.05863574
45	0x3db514d6	0.08841865
46	0x3dfb4bd6	0.12270324
47	0xbcfaa7c8	-0.030597582
48	0x3dbf261e	0.09333442
49	0x3d1d7e7c	0.038450703
50	0x3e04586b	0.12924354
51	0xbdfe2ed1	-0.12411273
52	0xbc8a6a00	-0.016896248
53	0xbd8356a8	-0.06413013
54	0x3e2cad97	0.16863094
55	0xbe30e336	-0.17274174
56	0xbddd88c8	-0.108171046
57	0x3cb1fa10	0.021725684
58	0x3e2ef1f1	0.17084481
59	0x3e0556bb	0.13021366
60	0xbe3868a8	-0.18008673
61	0xbe0a8d5f	-0.13530491
62	0x3e3f146f	0.18660139
63	0x3ce5c288	0.028046861
64	0xbe28ca72	-0.16483477
65	0xbd7858b4	-0.06063147
66	0x3dac4fb2	0.08413638
67	0xbd24d590	-0.04024273
68	0xbe175fd0	-0.14782643
69	0xbdf358d1	-0.11882175
70	0xbdcc2d56	-0.09969585
71	0xbbf70340	-0.007538229
72	0x3d9a7592	0.07541956
73	0x3dbd3c9e	0.092400774
74	0xbdbf7804	-0.09349063
75	0xbd044304	-0.032290474
76	0xbe182774	-0.148588
77	0x3e150833	0.14553909
78	0x3e44aa6d	0.19205637
79	0x3e3f8bb7	0.1870564
80	0x3da11306	0.078649566

task_10.bias f4 [3]
0	0xbd2816ec	-0.041037485
1	0xbb9d3440	-0.0047974885
2	0x3d8e32d6	0.0694329

task_11.weight f4 [3, 3, 3, 3]
0	0xbe2ad233	-0.16681747
1	0x3c43bbf0	0.011946663
2	0xbe20303c	-0.156434
3	0xbe4508ec	-0.19241685
4	0xbbd2c6a0	-0.0064323694
5	0xbd7af2cc	-0.061266705
6	0xbdf9abaf	-0.12190949
7	0x3d02ad00	0.031903267
8	0x3c0071d0	0.007839635
9	0x3cf09520	0.029367983
10	0xbddc9816	-0.107711956
11	0xbe4106d7	-0.18850265
12	0x3b8a03c0	0.004211873
13	0xbda0ca4f	-0.07851087
14	0xbd84e0ce	-0.064881906
15	0x3e11144f	0.14167903
16	0x3d00bd5c	0.031430587
17	0x3db4023a	0.08789487
18	0xbd5c4d10	-0.05378443
19	0xbe1c5f19	-0.15270652
20	0x3d1d2df4	0.038373902
21	0xbe02821b	-0.12744944
22	0x3cc35700	0.023845196
23	0xbe19cc08	-0.15019238
24	0x3e14918b	0.14508645
25	0xbe063efe	-0.13109967
26	0x3e2b1643	0.16707711
27	0x3e0b35c9	0.13594736
28	0x3e14f909	0.14548124
29	0x3dec7fe6	0.11547832
30	0x3d36743c	0.044544443
31	0xbc19ad70	-0.00937973
32	0xbb495280	-0.003071934
33	0xbd9cc1d0	-0.07654154
34	0xbe352521	-0.17689945
35	0x3e339f8d	0.17541333
36	0x3c235eb0	0.009971306
37	0x3db95ede	0.090512976
38	0x3be774c0	0.007063478
39	0x3d628740	0.055304766
40	0xbdf2d724	-0.11857441
41	0xbe1931d1	-0.1496041
42	0x3e164b07	0.14677058
43	0x3d9576a2	0.07298018
44	0x3dc29c52	0.09502472
45	0xbe439a14	-0.19101745
46	0x3c552cd0	0.013011172
47	0xbe37d116	-0.17950854
48	0xbcb46a70	-0.02202341
49	0xbc26afc0	-0.010173738
50	0xbe0aa455	-0.1353925
51	0xbe432480	-0.19056892
52	0x3aa60580	0.0012666434
53	0x3e313953	0.17307024
54	0x3e319a75	0.17344077
55	0xbdeff5a3	-0.11716773
56	0xbd0c07c8	-0.03418711
57	0xbe24cc2d	-0.16093512
58	0xbe19e6d6	-0.15029463
59	0xbd582268	-0.052767187
60	0x3e3f5379	0.18684186
61	0xbd4da638	-0.050207347
62	0x3c366ec0	0.011134803
63	0x3e39653d	0.18105026
64	0x3d0c79f8	0.034296006
65	0x3e1ef9a1	0.15524913
66	0x3e02f357	0.1278814
67	0x3e38cb2d	0.18046255
68	0x3d072e74	0.033003286
69	0xbe1f5dbb	-0.15563099
70	0xbe2987f8	-0.16555774
71	0xbdcba469	-0.09943468
72	0x3e22a7eb	0.15884368
73	0x3de2a45a	0.11066504
74	0x3d66b5a8	0.056325585
75	0xbe1612de	-0.14655635
76	0xbe112465	-0.1417404
77	0x3e20c74d	0.15701027
78	0xbca3a6e8	-0.019977048
79	0xbe44373b	-0.19161694
80	0xbcc2e578	-0.02379106

task_11.bias f4 [3]
0	0xbd3d3eb8	-0.04620239
1	0x3b3e3f00	0.002902925
2	0x3da4f336	0.08054201

task_12.weight f4 [3, 3, 3, 3]
0	0x3d97a8b6	0.07405226
1	0xbe16cafc	-0.1472587
2	0xbb0a3c80	-0.002109319
3	0xbdc352e9	-0.09537298
4	0x3e054d91	0.1301787
5	0x3dc32b96	0.09529798
6	0x3dd855c2	0.10563232
7	0x3e3329f5	0.17496474
8	0x3dc199fa	0.09453197
9	0xbe44edea	-0.19231382
10	0x3d46e7d0	0.048560917
11	0xbe0739cf	-0.13205646
12	0x3cd288b8	0.025699958
13	0x3b06cfc0	0.0020570606
14	0x3e437505	0.19087608
15	0xbe06a454	-0.13148624
16	0xbe411499	-0.18855514
17	0xbd5351fc	-0.05159186
18	0x3cfe0d68	0.031012252
19	0x3e105c95	0.14097817
20	0x3e1fc8a5	0.15603884
21	0x3e17c597	0.14821468
22	0x3d78d664	0.060751334
23	0xbd614614	-0.054998472
24	0xbd26ace0	-0.04069221
25	0xbdd78b13	-0.10524573
26	0x3d1a25d0	0.037633717
27	0xbe090cba	-0.13383761
28	0x3d8781ce	0.06616555
29	0x3dfe89d2	0.12428631
30	0x3e2739e9	0.16330685
31	0xbe423e4c	-0.18969077
32	0x3e21b067	0.15789948
33	0xbdf7982f	-0.120895736
34	0xbc80b9a8	-0.015713528
35	0x3e33e62b	0.17568271
36	0x3dd595d2	0.104289666
37	0xbd7a0b10	-0.061045706
38	0x3de8abb2	0.11360873
39	0xbe3fad2b	-0.18718402
40	0x3e1a108b	0.15045373
41	0x3e3f4c63	0.18681483
42	0xbc0f3010	-0.008739486
43	0x3d01bbd4	0.031673267
44	0xbd38f7f0	-0.045158327
45	0xbdf98292	-0.121831074
46	0xbdb24606	-0.08704762
47	0xbc516550	-0.012780502
48	0xbe213993	-0.15744619
49	0xbe1f461d	-0.1555409
50	0x3cad05a0	0.021120846
51	0xbe003a4c	-0.12522238
52	0xbdd663c2	-0.10468246
53	0xbada2480	-0.0016642958
54	0xbdcfb636	-0.10142176
55	0x3e366aa5	0.17814119
56	0xbd8e4895	-0.06947438
57	0xbddb270a	-0.107008055
58	0xbd520088	-0.051270038
59	0xbe20c884	-0.1570149
60	0x3dcb0b12	0.09914221
61	0x3e295219	0.16535224
62	0xbde34dc3	-0.11098816
63	0xbd9284b4	-0.07154217
64	0x3e37eb05	0.17960747
65	0xbe0e8ef9	-0.13921727
66	0x3d557f08	0.0521231
67	0xbe20909a	-0.15680161
68	0xbe2f6679	-0.17128934
69	0x3998ac00	0.0002911985
70	0xbde0f302	-0.1098385
71	0x3dd5759a	0.10422821
72	0xbd73d170	-0.059525907
73	0x3af88900	0.0018961728
74	0xbdcdc555	-0.10047404
75	0x3da1f70a	0.07908447
76	0x3e3696bd	0.1783094
77	0xbced00a0	-0.028930962
78	0xbdf34417	-0.118782215
79	0xbe4034bb	-0.18770115
80	0x3e3cd809	0.18441786

task_12.bias f4 [3]
0	0x3da61eb2	0.081113234
1	0x3da2c602	0.07947923
2	0x3d063514	0.032765463

task_13.weight f4 [3, 3, 3, 3]
0	0x3dc5c5ba	0.09656854
1	0x3d8bf65a	0.06834097
2	0x3dc072aa	0.093968704
3	0x3df67ffe	0.12036131
4	0x3cdf8e18	0.027289435
5	0x3e29be33	0.16576461
6	0x3df51536	0.11966936
7	0xbbc10b80	-0.0058912635
8	0xbdb00a60	-0.08595729
9	0x3c510560	0.012757629
10	0x3e197ac3	0.14988236
11	0x3df9ad86	0.121913
12	0xbd9fb6da	-0.07798548
13	0xbd2491c8	-0.04017809
14	0x3d9c7d16	0.07641046
15	0x3d9480ee	0.07251154
16	0x3e3ba835	0.18325885
17	0x3dbf6362	0.09345128
18	0x3d7b2234	0.061311916
19	0x3d362f68	0.044478804
20	0xbe39347f	-0.18086432
21	0xbd913512	-0.070902005
22	0x3ca6db38	0.020368204
23	0xbe0917ec	-0.13388032
24	0xbe2caa57	-0.16861854
25	0x3e04fa8f	0.12986206
26	0x3d860c6e	0.065453395
27	0xbe1f0722	-0.15530065
28	0x3c3b24a0	0.011422306
29	0x3de81de2	0.11333825
30	0x3de30d8a	0.11086567
31	0x3e33f70b	0.17574708
32	0xbd9bd7e1	-0.07609535
33	0x3daf7f9a	0.0856926
34	0xbe1fdbda	-0.1561121
35	0xbcc27788	-0.023738638
36	0xbdfaab7c	-0.12239739
37	0xbd1619a0	-0.03664553
38	0x3de0604e	0.10955869
39	0x3dc47cce	0.09594117
40	0xbdcf5280	-0.101231575
41	0xbd4377ac	-0.04772155
42	0xbd1db2dc	-0.03850065
43	0xbd95f0c9	-0.07321317
44	0xbdd7e810	-0.10542309
45	0x3e10b515	0.14131577
46	0x3e083845	0.13302715
47	0x3e2484bf	0.16066264
48	0xbdd86cf6	-0.10567658
49	0x3e104f93	0.14092855
50	0xbd6f0798	-0.05835685
51	0xbd3932e0	-0.045214534
52	0xbd543b0c	-0.051814124
53	0xbc1951d0	-0.0093578845
54	0xbdac97a4	-0.08427361
55	0x3cd79b10	0.026319057
56	0xbdfe097e	-0.12404154
57	0x3da21aaa	0.07915242
58	0xbe254437	-0.16139303
59	0xbd8ee257	-0.06976765
60	0xbe09a4d6	-0.13441786
61	0x3e04efc5	0.1298209
62	0x3e076557	0.13222252
63	0xbe1cbd6b	-0.15306632
64	0xbdd711db	-0.105014525
65	0x3e305f9f	0.17223977
66	0x3d65b248	0.056078225
67	0x3e07b263	0.13251643
68	0xbe171590	-0.14754319
69	0x3db1e24e	0.08685742
70	0x3dfae27e	0.12250231
71	0xbd36e568	-0.044652373
72	0xbc114c70	-0.008868322
73	0x3e0fb2cb	0.14033048
74	0x3d56f25c	0.052477226
75	0x3d622e94	0.0552202
76	0x3a197300	0.0005853623
77	0xbda48c20	-0.08034539
78	0xbdf13e5d	-0.11779473
79	0x3e44a8e1	0.19205047
80	0xbc791710	-0.015203252

task_13.bias f4 [3]
0	0x3e2ee281	0.17078592
1	0x3e213dd1	0.15746237
2	0xbdce1953	-0.10063424

task_14.weight f4 [3, 3, 3, 3]
0	0x3c565230	0.013081118
1	0xbd49a18c	-0.04922633
2	0xbb650200	-0.003494382
3	0x3e01e15f	0.12683628
4	0x3dd90862	0.10597302
5	0xbddfddba	-0.10930963
6	0xbdc3060a	-0.09522636
7	0xbe0bff94	-0.13671714
8	0xbe2751ad	-0.1633975
9	0x3dfcd65e	0.12345575
10	0xbdf38b84	-0.11891845
11	0x3b24d380	0.0025150478
12	0xb9891200	-0.00026144087
13	0x3d06da48	0.032923013
14	0xbc387b20	-0.011259824
15	0x3dcc8862	0.099869505
16	0x3cd88378	0.026429877
17	0x3e0d50cb	0.13800351
18	0x3d2a2810	0.041542113
19	0xbb1d4f40	-0.0024003536
20	0x3cdf6670	0.027270526
21	0x3e0358e9	0.12826885
22	0x3cedf490	0.02904728
23	0x3e0ad4a5	0.1355768
24	0xbc957fa0	-0.018249333
25	0x3adab780	0.0016686767
26	0x3e2590fb	0.16168587
27	0xbe3a0d0c	-0.1816904
28	0x3c9d46a0	0.019198716
29	0x3e33ff1b	0.17577784
30	0xbdc5c877	-0.09657376
31	0xbd11675c	-0.03549896
32	0xbc3df7e0	-0.011594743
33	0x3d81d8f6	0.0634021
34	0x3d94f872	0.0727395
35	0x3d32935c	0.043597564
36	0x3d9b7a32	0.07591666
37	0xbda91b78	-0.082571924
38	0x3da5d136	0.080965444
39	0xbd79f2b8	-0.06102249
40	0x3df7a6b2	0.120923415
41	0xbd675900	-0.05648136
42	0xbe27ce52	-0.16387299
43	0x3c612fa0	0.013744265
44	0x3dcd16c2	0.10014106
45	0xbbf72700	-0.007542491
46	0x3b23b780	0.00249812
47	0x3a32c300	0.00068192184
48	0x3dd12e9e	0.1021397
49	0x3c76b690	0.015058175
50	0xbe300ca1	-0.17192318
51	0xbe0c8ae6	-0.1372486
52	0x3c3a6180	0.011375785
53	0xbc7d2fc0	-0.015453279
54	0x3e3c5eab	0.18395488
55	0xbd394e38	-0.04524061
56	0x3e16d183	0.1472836
57	0xbe263389	-0.16230597
58	0xbe3b4c11	-0.18290736
59	0xbc9106d0	-0.017703444
60	0xbdf98f30	-0.12185514
61	0xbd65e14c	-0.056123063
62	0x3cb194a8	0.02167733
63	0xbe2af118	-0.16693532
64	0x3e076b8f	0.13224624
65	0xbdef334f	-0.11679708
66	0x3e1734af	0.14766191
67	0x3d80d5ae	0.06290756
68	0xbd13d524	-0.03609194
69	0xbe2c76f6	-0.16842255
70	0x3d0277d0	0.031852543
71	0xbddc3036	-0.10751383
72	0x3e2a51c1	0.16632749
73	0xbe25c8d0	-0.16189885
74	0xbd5039d0	-0.050836384
75	0xbdd93796	-0.10606305
76	0xbdfd7e1c	-0.12377569
77	0xbdcd9208	-0.10037619
78	0xbc9c4ce0	-0.019079626
79	0x3c554e70	0.013019189
80	0x3d058778	0.032599896

task_14.bias f4 [3]
0	0x3dc9676a	0.09834178
1	0xbda0fd2a	-0.07860787
2	0xbdf48b9b	-0.1194069

task_15.weight f4 [3, 3, 3, 3]
0	0xbd2616b4	-0.040548995
1	0x3e39b5cb	0.18135755
2	0xbcc09c90	-0.023512155
3	0xbe25e7a9	-0.16201653
4	0x3e1aa1c5	0.15100773
5	0x3d3fcd0c	0.046826407
6	0x3d08cfe0	0.03340137
7	0x3d074e34	0.033033565
8	0x3e097e87	0.13427173
9	0xbdb377da	-0.08763094
10	0x3e0fa083	0.14026074
11	0x3e3d803d	0.1850595
12	0xbd4b4238	-0.049623698
13	0x3df8c0ae	0.12146126
14	0x3dd973f6	0.10617821
15	0x3e388d35	0.18022616
16	0xbd377680	-0.044790745
17	0xbdea757e	-0.11448191
18	0xbd924de7	-0.07143765
19	0xbe061353	-0.13093309
20	0x3bd858a0	0.006602362
21	0x3e3e0099	0.18554915
22	0x3e3f2f0d	0.18670292
23	0x3e14db59	0.145368
24	0x3c9c0018	0.019043013
25	0x3b88e5e0	0.004177794
26	0x3e027bbf	0.12742518
27	0x3dea085e	0.11427377
28	0xbc9c7330	-0.019097894
29	0xbd475e18	-0.04867372
30	0x3d9bd8b6	0.07609694
31	0xbbdad140	-0.0066777766
32	0xbe0a72cd	-0.13520356
33	0xbdb962ac	-0.09052023
34	0x3e1fd21d	0.15607496
35	0x3e241e79	0.1602725
36	0xbd999485	-0.07499031
37	0xbd2929a8	-0.041299492
38	0xbdc35806	-0.095382735
39	0xbd80acec	-0.06282982
40	0x3e33a3cd	0.17542954
41	0xbe2f4612	-0.17116573
42	0x3dbc13a2	0.09183432
43	0xbe311f84	-0.17297179
44	0xbdbc0a56	-0.09181659
45	0xbd208568	-0.039189726
46	0x3c5a7c60	0.013335317
47	0xbd0003a8	-0.031253487
48	0xbdb42a7b	-0.08797165
49	0xbdafccb8	-0.08583969
50	0xbdefba78	-0.11705488
51	0xbe098e20	-0.13433123
52	0xbdf58e6a	-0.11990054
53	0x3e3cf9a7	0.1845461
54	0xbdb9b4d3	-0.090676926
55	0xbe23e150	-0.16003919
56	0x3e07722d	0.13227148
57	0x3d98e8ca	0.07466276
58	0x3e078e8b	0.1323797
59	0xbe4405fe	-0.19142911
60	0xbe3b961a	-0.18318978
61	0xbe0bde72	-0.13659075
62	0xbdcfa214	-0.10138336
63	0xb9de3200	-0.00042380393
64	0x3daa7cd2	0.08324589
65	0x3de6c0ae	0.112672195
66	0xbe297ffb	-0.16552727
67	0x3d9d2fce	0.07675134
68	0xbde3eee7	-0.111295514
69	0x3d35316c	0.044236585
70	0x3d777e24	0.06042303
71	0x3cfc4c50	0.030798107
72	0x3d8b72ae	0.06808983
73	0xbc1d70c0	-0.009609401
74	0x3e021a3d	0.12705322
75	0x3d246788	0.040137798
76	0x3e2ca67d	0.16860385
77	0x3d2adf9c	0.041717157
78	0xbdd0a59f	-0.1018784
79	0x3dfd1d5e	0.12359117
80	0x3c2ad240	0.010426104

task_15.bias f4 [3]
0	0x3e3e7489	0.18599142
1	0xbcae5a18	-0.021283194
2	0x3e42fb9b	0.19041292

task_16.weight f4 [3, 3, 3, 3]
0	0xbde61525	-0.11234502
1	0x3dc6162a	0.09672196
2	0xbe1303ac	-0.1435687
3	0x3e074b5f	0.13212346
4	0x3d0f1700	0.034934044
5	0x3ddfc476	0.10926144
6	0xbe29b620	-0.16573381
7	0xbe4408e3	-0.19144015
8	0x3dbde916	0.09272973
9	0xbda22745	-0.07917646
10	0x3d9c186e	0.07621847
11	0xbde9d665	-0.11417846
12	0xbd73af14	-0.05949314
13	0x3a620400	0.0008621812
14	0x3ded5a1a	0.11589451
15	0x3dde938a	0.108679846
16	0xbc8cd3e0	-0.017190874
17	0xbd5ef6e4	-0.054434672
18	0xbb5abb40	-0.003337577
19	0x3dcb23ba	0.09918924
20	0xbe27079a	-0.16311494
21	0xbd70de44	-0.05880572
22	0xbe3df945	-0.1855212
23	0x3ce39190	0.02777937
24	0xbcba7ac0	-0.02276361
25	0x3ddf46ee	0.10902201
26	0x3e1d6eb9	0.15374269
27	0xbe28801e	-0.16455123
28	0xbdae6e35	-0.08517114
29	0xbcfd7218	-0.030938193
30	0xbafb8a00	-0.0019190907
31	0xbd33f028	-0.043930203
32	0xbdf7cffe	-0.12100218
33	0xbd984b5f	-0.07436251
34	0xbba26760	-0.004956171
35	0x3e1e7a73	0.15476398
36	0xbd48e4fc	-0.0490465
37	0x3e02248d	0.12709256
38	0xbe1f4cf8	-0.15556705
39	0x3c0d0130	0.00860624
40	0xbe19c978	-0.1501826
41	0xbe38ec40	-0.18058872
42	0x3c9c3d58	0.01907222
43	0xbdb478c2	-0.08812095
44	0x3e1115bd	0.14168449
45	0x3e1ba82d	0.15200873
46	0xbe4425b8	-0.19155014
47	0xbc5bbdd0	-0.013411954
48	0xbd06aafc	-0.032877907
49	0xbde0a623	-0.10969188
50	0xbe09950b	-0.13435762
51	0xbda6ca59	-0.081440635
52	0x3dae0392	0.08496775
53	0x3d3b6c98	0.04575786
54	0x3ded36e6	0.11582737
55	0xbc3c0d20	-0.011477739
56	0x3dccb4c6	0.09995417
57	0x3d186f64	0.037215605
58	0xbd2be3c8	-0.041965276
59	0xbc385520	-0.011250764
60	0xbe333b9d	-0.1750321
61	0xbb90d2c0	-0.0044196546
62	0xbd817afe	-0.06322287
63	0xbd83e67a	-0.06440444
64	0xbd9e4df6	-0.077297136
65	0xbd2c5814	-0.042076185
66	0xbe117dd6	-0.14208159
67	0x3c3907c0	0.011293352
68	0xbc0024b0	-0.007821247
69	0xbd4f9cd8	-0.050686687
70	0x3e2b11e9	0.16706051
71	0x3e044197	0.12915646
72	0x3d5e9fdc	0.054351673
73	0xbd912b76	-0.07088368
74	0x3cc91548	0.02454628
75	0xbe079802	-0.1324158
76	0x3e09509b	0.13409655
77	0x3e381171	0.17975403
78	0xbceb62b8	-0.028733596
79	0x3e17fb15	0.14841874
80	0x3e38f2eb	0.18061416

task_16.bias f4 [3]
0	0xbc3d74b0	-0.011563465
1	0xbd925a88	-0.07146174
2	0x3c1f21d0	0.009712651

task_17.weight f4 [3, 3, 3, 3]
0	0x3d0244ac	0.03180377
1	0xbe366bd5	-0.17814572
2	0xbc44b240	-0.012005389
3	0xbd8e81e3	-0.06958368
4	0x3e0380d3	0.12842111
5	0xbbb50620	-0.005524412
6	0x3e01a899	0.12661971
7	0x3e2f4a43	0.17118172
8	0xbd770ab4	-0.06031294
9	0x3d29adf0	0.041425645
10	0xbc86dcb0	-0.016462654
11	0xbdabc3e9	-0.08386976
12	0xbddaa3eb	-0.10675796
13	0x3b91ece0	0.0044532865
14	0x3d6f7fac	0.058471367
15	0xbd0aa47c	-0.03384827
16	0x3d05dde0	0.0326823
17	0x3df64e1e	0.120266184
18	0x3da44f0a	0.08022888
19	0x3da2880a	0.07936104
20	0x3d5d88bc	0.05408548
21	0xbe177d9e	-0.14794013
22	0xbdee7491	-0.11643327
23	0xbe12245c	-0.14271683
24	0x3e018057	0.12646614
25	0xbe2d9274	-0.16950399
26	0xbe1320a3	-0.14367919
27	0x3e01c835	0.12674029
28	0x3de8fa46	0.11375861
29	0xbe3a4afb	-0.18192665
30	0x3de3bd4e	0.111200914
31	0xbd33ddf4	-0.043912843
32	0x3d29d4b0	0.0414626
33	0xbdf6e6ce	-0.12055741
34	0xbcef5200	-0.029213905
35	0x3d2f3304	0.04277326
36	0x3e164347	0.14674102
37	0x3def0122	0.11670138
38	0xbdd652ee	-0.10465036
39	0xbe0143ce	-0.12623522
40	0xbc3fe0c0	-0.011711299
41	0x3d7764cc	0.06039886
42	0x3dd81aee	0.105520114
43	0xbe446137	-0.1917771
44	0xbc80d520	-0.015726626
45	0x3bdf0160	0.006805584
46	0xbdb811d3	-0.08987775
47	0x3e1b6f81	0.15179254
48	0xbd513f48	-0.05108574
49	0xbe3be28d	-0.18348141
50	0xbdeb54af	-0.114907615
51	0x3bca3220	0.006170526
52	0xbe12a710	-0.14321542
53	0x3d340d14	0.043957785
54	0x3e3fb58b	0.18721597
55	0x3c0113e0	0.007878274
56	0xbd4231e8	-0.047410876
57	0x3e39a8ef	0.1813085
58	0x3e117bdf	0.1420741
59	0x3e02f4b7	0.12788664
60	0x3c6f2df0	0.014598355
61	0x3c1025f0	0.0087981075
62	0xbe18d50e	-0.14925024
63	0x3ca07ba8	0.019590214
64	0x3e3fae0b	0.18718736
65	0x3c26aff0	0.010173783
66	0xbe2fdc83	-0.17173962
67	0x3dd85416	0.10562913
68	0x3e30dc87	0.17271625
69	0x3e25361d	0.16133924
70	0x3c14b720	0.0090768635
71	0x3d141688	0.0361543
72	0x3cff2258	0.031144306
73	0xbda189c9	-0.078876086
74	0xbce60940	-0.028080583
75	0x3e20c525	0.15700205
76	0x3ca0d830	0.019634336
77	0x3e39bc0d	0.18138142
78	0xbe02ddf0	-0.12779975
79	0xbce66890	-0.028126031
80	0x3b13cc80	0.0022552311

task_17.bias f4 [3]
0	0xbdea93ff	-0.11454009
1	0x3e182761	0.14858772
2	0x3e09a297	0.1344093

task_18.weight f4 [3, 3, 3, 3]
0	0xbdd4995e	-0.10380815
1	0x3e2d9d57	0.16954552
2	0x3e37c2c9	0.17945398
3	0xbde7bf0f	-0.113157384
4	0xbbd98380	-0.0066379905
5	0x3e4464b1	0.19179036
6	0xbdffe04c	-0.12493953
7	0xbcf6fca8	-0.030149773
8	0xbe073db2	-0.13207129
9	0x3e0e325b	0.13886397
10	0x3cff92f8	0.03119801
11	0x3da41432	0.080116645
12	0x3e0d6931	0.13809659
13	0xbcfa2420	-0.030534804
14	0xbe44fcd4	-0.19237071
15	0x3c1a6750	0.009424046
16	0xbc740380	-0.014893413
17	0x3d8ef0e6	0.069795415
18	0x3db7faea	0.08983405
19	0xbdc3fe5c	-0.095699996
20	0xbd9b3fde	-0.07580541
21	0x3df87616	0.12131898
22	0x3d606774	0.05478616
23	0x3d349380	0.04408598
24	0x3daf7c16	0.085685894
25	0x3db7455a	0.08948775
26	0xbe0e64a5	-0.1390558
27	0x3c7bc7c0	0.015367448
28	0x3c96b780	0.018398046
29	0xbe3e5c9a	-0.18590012
30	0x3d2748d8	0.040840954
31	0xbb284980	-0.0025678575
32	0x3e18dc11	0.14927699
33	0xbe3c19f7	-0.1836928
34	0x3e396045	0.1810313
35	0xbdc0e179	-0.094180055
36	0x3de831fe	0.1133766
37	0x3e1196b5	0.14217646
38	0xbcc39b18	-0.023877665
39	0xbdc9a5b5	-0.09846059
40	0xbd02df2c	-0.031951115
41	0xbdf5cebb	-0.12002321
42	0x3cc2df28	0.02378805
43	0x3da5acb6	0.080895826
44	0x3d22e980	0.039773464
45	0xbde2f938	-0.11082691
46	0x3dd75b7a	0.10515495
47	0x3e34d713	0.1766017
48	0xbd6fd7e0	-0.058555484
49	0x3dcca93a	0.09993215
50	0xbc4fd570	-0.012685165
51	0x3d9eddca	0.07757147
52	0xbe0c8bb6	-0.1372517
53	0xbe2846f9	-0.16433324
54	0xbbb30760	-0.0054635257
55	0xbe260c56	-0.16215643
56	0x3d8dfada	0.06932612
57	0x3e387b9b	0.18015902
58	0xbd1a97fc	-0.0377426
59	0x3af35680	0.0018565208
60	0x3cefc118	0.029266879
61	0xbdbe76ad	-0.09299979
62	0xbc2152d0	-0.009846404
63	0x3d4b13dc	0.049579486
64	0x3e1f5e7b	0.15563385
65	0xbe237f50	-0.15966535
66	0xbb79a8c0	-0.0038094968
67	0xbe20c6dd	-0.1570086
68	0xbc8b93e0	-0.017038286
69	0xbba64ea0	-0.005075291
70	0xbda459a8	-0.08024913
71	0x3df1bf3e	0.11804055
72	0x3e0735a7	0.1320406
73	0xbd98e68e	-0.0746585
74	0xbcdbcab8	-0.026830062
75	0xbd7198d8	-0.058983654
76	0x3ba9da00	0.0051834583
77	0x3d81e926	0.06343298
78	0x3e3632b7	0.17792784
79	0xbe34c214	-0.1765216
80	0x3da0132e	0.07816158

task_18.bias f4 [3]
0	0xbded5a2c	-0.115894645
1	0xbe20ee49	-0.15715899
2	0x3e17c3b1	0.14820744

task_19.weight f4 [3, 3, 3, 3]
0	0xbd6ad8e8	-0.057335764
1	0xbddd0332	-0.10791625
2	0x3d583d78	0.052792996
3	0xbd2406a4	-0.040045395
4	0xbe34619c	-0.1761536
5	0xbdcd95c9	-0.10038335
6	0xbda680f7	-0.08130067
7	0xbc75ea60	-0.015009493
8	0xbe021878	-0.12704647
9	0xbe3dcba4	-0.18534714
10	0x3ddb36b6	0.10703795
11	0xbe2939b8	-0.16525924
12	0xbcbedd30	-0.02329883
13	0x3e292869	0.16519322
14	0xbd9111be	-0.07083462
15	0xbe0252b7	-0.12726866
16	0x3d527ec4	0.051390424
17	0x3e2bf9b9	0.1679448
18	0xbcaddd00	-0.021223545
19	0xbc3a0c70	-0.011355504
20	0x3db8292a	0.089922264
21	0x3cc57ab8	0.024106368
22	0x3d1701c4	0.03686692
23	0x3dd091a2	0.10184027
24	0x3db3256a	0.087473705
25	0xbe0d219b	-0.1378235
26	0xbd9b98f6	-0.07597534
27	0x3e069fef	0.13146947
28	0x3cf34810	0.029697448
29	0x3d37a068	0.04483071
30	0x3e3d494d	0.18484993
31	0x3df3f8b6	0.11912672
32	0x3d9d46ea	0.076795414
33	0x3e3c939f	0.18415688
34	0xbe2d595c	-0.16928619
35	0x3cf4a820	0.029865324
36	0x3d4dd27c	0.05024956
37	0xbd091118	-0.033463567
38	0xbdb9157a	-0.090372995
39	0x3d1180f0	0.035523355
40	0xbe22e578	-0.15907848
41	0xbda7e9cc	-0.0819889
42	0x3e15ab17	0.14616047
43	0xbd90cebc	-0.070706815
44	0xbd62f140	-0.055405855
45	0x3db0c99e	0.086322054
46	0xbd476dbc	-0.048688635
47	0x3ce78c50	0.028265148
48	0xbe44f5ff	-0.19234465
49	0x3de06d7a	0.10958381
50	0xbe2f5126	-0.171208
51	0x3cd20208	0.025635734
52	0xbe4384a6	-0.1909357
53	0xbe292408	-0.16517651
54	0x3e1e89f1	0.15482308
55	0xbdd906e3	-0.10597017
56	0xbbd9a4a0	-0.0066419393
57	0x3c0c7610	0.00857307
58	0x3e3554cb	0.17708127
59	0x3d7ba84c	0.061439797
60	0x3dc0641e	0.09394096
61	0xbda89d9b	-0.08233186
62	0xbd872390	-0.0659858
63	0x3e0f5a5d	0.13999315
64	0x3d907d76	0.0705518
65	0x3d45af28	0.048262745
66	0xbe149cad	-0.14512892
67	0xbe1d47d8	-0.15359437
68	0x3d1f2848	0.038856775
69	0xbe13e367	-0.14442216
70	0x3e0a2b8f	0.13493179
71	0x3e2435d7	0.16036163
72	0xbda33c34	-0.07970467
73	0xbdfe0959	-0.12404127
74	0x3e3ec4f9	0.18629827
75	0xbdd24899	-0.10267753
76	0xbe1d119c	-0.15338749
77	0xbe0f0867	-0.13968049
78	0x3d08eeec	0.03343098
79	0x3d19147c	0.03737305
80	0x3dfe80c6	0.12426905

task_19.bias f4 [3]
0	0x3e1eb213	0.15497617
1	0x3da816de	0.082074866
2	0x3ce10f90	0.027473241

task_20.weight f4 [3, 3, 3, 3]
0	0x3e31fd33	0.17381744
1	0xbda2a78f	-0.079421155
2	0xbd0a3bd8	-0.033748478
3	0x3e26e0a5	0.16296633
4	0xbd84a8d4	-0.06477514
5	0x3dd34f52	0.103178635
6	0x3d290d00	0.041272163
7	0x3d8b1f1e	0.067930445
8	0xbd343b50	-0.044001877
9	0xbe27d888	-0.16391194
10	0x3e0d516f	0.13800596
11	0x3e224139	0.15845193
12	0xbe1c7e09	-0.15282454
13	0xbdb8763d	-0.09006927
14	0x3c05b810	0.00816156
15	0x3dc3497a	0.09535499
16	0xbcdf2658	-0.027239963
17	0xbdaccd1b	-0.08437558
18	0x3e195b23	0.14976172
19	0xbdc5dcc1	-0.09661246
20	0x3e330ff1	0.1748655
21	0x3b567d80	0.0032728612
22	0x3dcee966	0.10103111
23	0x3d39563c	0.045248255
24	0x3d0abea8	0.03387323
25	0x3e1103e7	0.14161645
26	0xbc1e0600	-0.009644985
27	0x3e0b0b8f	0.13578628
28	0x3d821dc6	0.06353335
29	0xbddbfcff	-0.107416146
30	0x3e012ae5	0.12614019
31	0xbe0c0255	-0.13672765
32	0x3dcd356e	0.100199565
33	0xbd28e1c4	-0.041230932
34	0x3d74996c	0.059716627
35	0xbcbca508	-0.023027912
36	0x3d1bd160	0.038041472
37	0xbd6e1624	-0.058126584
38	0x3da35882	0.07975866
39	0x3db7fa5a	0.08983298
40	0xbe344134	-0.17602998
41	0x3e2dc02f	0.16967843
42	0xbe1eeba4	-0.15519577
43	0xbdafeba5	-0.085898675
44	0x3d9b290a	0.07576187
45	0x3e35a385	0.17738159
46	0x3d80286a	0.06257708
47	0xbddbefc1	-0.10739089
48	0x3d0ab83c	0.033867106
49	0xbdec87d6	-0.11549346
50	0x3db96cd2	0.09053959
51	0x3c212880	0.009836316
52	0x3c99c1b8	0.01876913
53	0xbe172ab5	-0.14762385
54	0x3dd25966	0.10270958
55	0x3e3b3c87	0.18284808
56	0xbe08b6a8	-0.13350928
57	0x3d86119e	0.06546329
58	0xbdadcf2f	-0.08486783
59	0xbd5348b4	-0.051583007
60	0x3e2e7753	0.17037706
61	0xbe3874dc	-0.18013328
62	0xbd14da9c	-0.036341295
63	0x3d8dc152	0.069216385
64	0x3db301f2	0.087406054
65	0xbd9a0c8f	-0.075219266
66	0xbdd72b8c	-0.10506353
67	0x3d1eed78	0.038800687
68	0xbe3366f5	-0.17519744
69	0x3cd14e48	0.025550023
70	0xbdf94870	-0.121720195
71	0xbd10085c	-0.035164222
72	0x3e3163a5	0.17323168
73	0xbe23a52e	-0.1598098
74	0xbdc2f0d3	-0.0951859
75	0xbe179d3c	-0.14806074
76	0x3deaeb06	0.114706084
77	0x3e22c57f	0.15895651
78	0xbdfee14d	-0.124453165
79	0x3df8af66	0.121428296
80	0x3dfc7812	0.12327589

task_20.bias f4 [3]
0	0xbe2951e8	-0.16535151
1	0x3d867db6	0.06566946
2	0x3db323a2	0.08747031

task_21.weight f4 [3, 3, 3, 3]
0	0xbd0cac58	-0.034344047
1	0x3e049259	0.12946452
2	0xbc43c290	-0.011948243
3	0xbcccb278	-0.024987444
4	0x3ddd1f22	0.10796954
5	0xbe342e1b	-0.17595713
6	0xbe418e78	-0.18902004
7	0x3d1272c4	0.03575398
8	0x3cadba98	0.021207139
9	0x3c5f4d40	0.013629258
10	0xbdf17c2d	-0.11791263
11	0x3e1d09d7	0.15335785
12	0xbdf3b768	-0.11900216
13	0xbdae50c6	-0.085115
14	0xbe265437	-0.16243063
15	0xbe444538	-0.1916703
16	0x3d3eb350	0.046557724
17	0xbd9ed432	-0.07755317
18	0x3df13d92	0.11779322
19	0x3e3e3ec7	0.18578635
20	0x3d800372	0.06250657
21	0x3e2c4bc3	0.16825776
22	0xbe092ac5	-0.13395222
23	0x3dcf9fd2	0.10137905
24	0x3dd639fe	0.1046028
25	0xbd9dc119	-0.07702846
26	0xbc5fcc60	-0.013659567
27	0xbdec82d5	-0.11548392
28	0x3c97d7e0	0.018535554
29	0xbe3c43ed	-0.18385287
30	0xbdeb5537	-0.11490863
31	0xbe29e0a5	-0.16589601
32	0xbcc6f2d0	-0.024285704
33	0x3ca0b050	0.019615322
34	0xbe1e7171	-0.15472962
35	0xbd90d0d7	-0.07071083
36	0x3deca95e	0.11555742
37	0x3c18bbd0	0.009322122
38	0x3d0a1ca4	0.03371872
39	0xbdae0eca	-0.084989145
40	0xbd67d898	-0.056603044
41	0xbe2eb6b6	-0.17061886
42	0x3e3793a9	0.17927422
43	0x3cb34918	0.02188544
44	0x3db58976	0.08864109
45	0x3de66a82	0.112507835
46	0x3e2cc915	0.16873582
47	0xbe07ef08	-0.13274777
48	0x3d5c0338	0.053714007
49	0xbe2acfa8	-0.16680777
50	0x3d92b7ba	0.07163949
51	0xbdca4026	-0.098755166
52	0x3d997b22	0.07494189
53	0xbe111850	-0.1416943
54	0x3dd08d82	0.101832405
55	0x3e0d1f63	0.13781504
56	0x3dd8a7e2	0.10578896
57	0xbe257a25	-0.16159876
58	0x3df679d2	0.12034954
59	0xbdfa174f	-0.12211477
60	0xbe3851da	-0.17999974
61	0x3e0047bf	0.12527369
62	0x3d063cf8	0.032772988
63	0xbd894140	-0.067018986
64	0xbe2c40c6	-0.16821584
65	0x3d4aa8dc	0.049477443
66	0xbdaa5fb3	-0.083190344
67	0xbe1c4317	-0.15259968
68	0xbcc5de58	-0.024153873
69	0xbe27d313	-0.16389112
70	0x3dc22ac6	0.09480815
71	0xbe01d97e	-0.12680623
72	0xbd862854	-0.06550661
73	0xbe42f4c8	-0.19038689
74	0xbcdb4958	-0.026768371
75	0xbd736714	-0.059424475
76	0x3dd97b8a	0.10619266
77	0xbd326014	-0.04354866
78	0x3e04a9f1	0.12955453
79	0x3e2c0d6d	0.16801997
80	0x3d20c954	0.0392545

task_21.bias f4 [3]
0	0xbd87164c	-0.0659605
1	0xbe225a82	-0.15854838
2	0xbe09e15c	-0.13464874
