saved_model_scp/etr_nlp.pth (torch, 40157 bytes, 83 tensors)

shared_branch.ops.2.weight f4 [3, 3, 3, 3]
-0.14947048 0.12156807 -0.09138994 -0.006205514 0.06793626 0.09773038 -0.09134045 -0.1759611
-0.11237982 -0.14701745 -0.14560978 0.090682045 0.08150853 0.110689834 -0.03144431 0.1545047
0.19125162 0.09873249 -0.10627339 -0.07607699 -0.12377645 0.12464748 0.021455854 0.18360652
-0.021545142 0.1723757 0.09410213 -0.0041560233 -0.09908915 0.07711105 0.010657385 -0.09730909
0.111962125 -0.02945 -0.1859456 -0.10742771 0.17456622 0.07944454 -0.12975821 0.15018727
0.006262824 -0.17863812 0.05682388 -0.06041947 -0.06995937 0.010041162 -0.17526095 0.0047527403
0.15591379 0.038050205 -0.021167994 0.08769129 -0.016836375 -0.062020004 0.0466294 0.02040559
0.07297848 -0.050522998 0.15598913 0.1291629 -0.07547706 0.06644313 0.028468251 0.16292556
0.16081424 0.09969969 0.1068183 0.045370862 -0.062403843 -0.10891434 0.17141937 0.08142875
-0.14790213 0.06056793 -0.059601977 -0.17499736 0.18466063 0.021089107 0.07189314 -0.0030641109
-0.16365981
00000000: ca0e 19be aef8 f83d a62a bbbd a057 cbbb
00000010: 2a22 8b3d de26 c83d b410 bbbd 262f 34be
00000020: 6427 e6bd be8b 16be bb1a 15be 82b7 b93d
00000030: f2ed a63d 5ab1 e23d c0cb 00bd 7b36 1e3e
00000040: 77d7 433e 4234 ca3d dda5 d9bd 41ce 9bbd
00000050: 827e fdbd 2e47 ff3d 30c4 af3c 5903 3c3e
00000060: 707f b0bc 4183 303e 9eb8 c03d 402f 88bb
00000070: 41ef cabd 66ec 9d3d 509c 2e3c fd49 c7bd
00000080: 664c e53d 2041 f1bc 8668 3ebe 0f03 dcbd
00000090: 7dc1 323e d2b3 a23d 56df 04be b1ca 193e
000000a0: 6038 cd3b e9ec 36be 28c0 683d 687a 77bd
000000b0: dc46 8fbd b083 243c 9b77 33be e0bc 9b3b
000000c0: dda7 1f3e 88da 1b3d 8068 adbc 7e97 b33d
000000d0: 70ec 89bc b008 7ebd 78fe 3e3d a029 a73c
000000e0: be75 953d 34f1 4ebd 9dbb 1f3e 4743 043e
000000f0: b893 9abd 5613 883d 4036 e93c f5d5 263e
00000100: 7dac 243e 5a2f cc3d 8ec3 da3d ccd6 393d
00000110: 2c9b 7fbd 7b0e dfbd 8f88 2f3e 1ec4 a63d
00000120: a873 17be 1416 783d 3421 74bd 8232 33be
00000130: ad17 3d3e 10c3 ac3c b63c 933d 40cf 48bb
00000140: 7096 27be

shared_branch.conv1x1.weight f4 [3, 5, 1, 1]
0.41187125 -0.15465614 -0.4380413 0.40392536 -0.1918309 -0.2393333 0.3703748 0.23863798
-0.29880857 -0.054266363 -0.24660747 0.35194194 -0.40272152 -0.28802407 -0.17790383
00000000: cae0 d23e 2e5e 1ebe f346 e0be 4ecf ce3e
00000010: 526f 44be ca13 75be c4a1 bd3e 845d 743e
00000020: 70fd 98be 6846 5ebd ab86 7cbe bc31 b43e
00000030: 8431 cebe e477 93be 6c2c 36be

shared_branch.conv1x1.bias f4 [3]
-0.27790082 0.37440783 -0.25657308
00000000: 0449 8ebe 62b2 bf3e 8c5d 83be

task_0.weight f4 [3, 3, 3, 3]
-0.04015872 0.039129674 -0.029478148 0.008638218 -0.03175275 -0.17935987 0.16001855 -0.073942855
0.048862725 0.12612219 0.06133531 -0.15831153 -0.004248008 0.03415312 0.09007086 0.13460593
0.15826435 -0.0058722347 0.1707245 -0.042166784 -0.0962551 -0.06904039 0.1829317 0.0993752
0.064970955 -0.090405226 -0.10253004 0.0021865368 0.026494354 -0.16805774 0.1536899 -0.0872764
-0.061681837 -0.12011099 0.020549878 -0.08923185 0.17535277 0.18326204 0.035938784 -0.07221127
0.17056535 0.13542922 0.18534224 -0.14888549 -0.008353978 -0.02168946 -0.044365272 -0.018443406
0.021882847 0.1906123 -0.19187689 -0.1611716 -0.0035648346 -0.11046942 -0.015273616 -0.13909596
-0.1817936 0.025493562 -0.057620198 0.059849456 0.102655336 -0.10510989 0.09834592 0.05612035
-0.051059306 -0.12431643 -0.0783027 0.1895471 -0.11148887 -0.14272143 -0.12629539 0.15884353
0.069962546 -0.117264435 0.19209264 -0.14882426 -0.18724623 -0.13663594 0.10852228 -0.071825646
-0.07761949
00000000: 787d 24bd 7046 203d 287c f1bc 5087 0d3c
00000010: 2c0f 02bd 1daa 37be e7db 233e 5a6f 97bd
00000020: 4824 483d 2d26 013e bc3a 7b3d 6b1c 22be
00000030: e032 8bbb 24e4 0b3d 1277 b83d 23d6 093e
00000040: 0d10 223e e06b c0bb 67d2 2e3e 14b7 2cbd
00000050: 6521 c5bd 0c65 8dbd 7352 3b3e 3a85 cb3d
00000060: 7e0f 853d 6026 b9bd 45fb d1bd 004c 0f3b
00000070: b00a d93c 5417 2cbe e360 1d3e f8bd b2bd
00000080: 18a6 7cbd c0fc f5bd 3858 a83c 30bf b6bd
00000090: ad8f 333e 0ba9 3b3e 8c34 133d 81e3 93bd
000000a0: afa8 2e3e f5ad 0a3e 5bca 3d3e 7075 18be
000000b0: 20df 08bc 18ae b1bc 5cb8 35bd a016 97bc
000000c0: a843 b33c df2f 433e 607b 44be 2b0a 25be
000000d0: 00a0 69bb cb3d e2bd 303e 7abc 2c6f 0ebe
000000e0: 1a28 3abe e0d7 d03c 2803 6cbd b424 753d
000000f0: f63c d23d db43 d7bd 9669 c93d 74de 653d
00000100: 9023 51bd 9d99 febd 2a5d a0bd a318 423e
00000110: 4754 e4bd 9125 12be 9453 01be e1a7 223e
00000120: 8648 8f3d 5628 f0bd efb3 443e 6365 18be
00000130: 7abd 3fbe 4bea 0bbe ee40 de3d 5319 93bd
00000140: f8f6 9ebd

task_0.bias f4 [3]
-0.060209587 -0.11440315 0.1844443
00000000: 549e 76bd 334c eabd f7de 3c3e

task_1.weight f4 [3, 3, 3, 3]
-0.0020492524 -0.053230703 0.18039279 -0.17862569 -0.07539441 0.18731473 -0.14278972 0.07261489
-0.12945175 -0.15783772 -0.0716316 -0.14552182 -0.05712086 -0.10329065 -0.082856536 -0.056983873
-0.083615474 -0.099289134 -0.0027785301 0.029710367 -0.047291115 -0.09853166 0.15372612 -0.15238655
0.16137956 0.04624106 -0.051635608 -0.16847745 0.037231803 -0.16054851 0.1225995 -0.0013842881
-0.16979851 0.1863039 0.032161474 0.06685625 -0.01007162 0.1668937 -0.0940129 -0.13448194
0.10993208 -0.03264436 0.031122252 -0.15058762 0.079468 -0.18841805 -0.015329599 -0.07911076
-0.17415978 0.05391188 -0.04681745 0.034139454 -0.16472568 0.15935467 -0.18916789 -0.10878777
-0.11970655 -0.15738249 0.051732063 -0.07152446 0.07897641 0.05570212 0.1738594 -0.054598525
-0.06114894 -0.17579454 -0.024117544 0.19042702 -0.12515275 -0.13957849 0.1156501 0.07712038
0.14638586 -0.13191853 -0.06379713 0.1790622 -0.12079789 -0.1344097 -0.06993746 -0.1800922
-0.06582904
00000000: c04c 06bb 7008 5abd e3b8 383e a7e9 36be
00000010: 6268 9abd 6fcf 3f3e 7837 12be 1eb7 943d
00000020: 008f 04be 36a0 21be 97b3 92bd ac03 15be
00000030: 90f7 69bd 0c8a d3bd b0b0 a9bd ec67 69bd
00000040: 973e abbd 1a58 cbbd 0018 36bb 2863 f33c
00000050: 54b4 41bd f8ca c9bd 616a 1d3e 380b 1cbe
00000060: af40 253e 4467 3d3d dc7f 53bd 5a85 2cbe
00000070: 6080 183d d466 24be 7215 fb3d 0071 b5ba
00000080: a9df 2dbe 73c6 3e3e c0bb 033d eeeb 883d
00000090: 7003 25bc 2fe6 2a3e d689 c0bd a2b5 09be
000000a0: 1224 e13d 18b6 05bd 18f4 fe3c a433 1abe
000000b0: 1ec0 a23d a9f0 40be 0029 7bbc d204 a2bd
000000c0: f156 32be b4d2 5c3d a8c3 3fbd d0d5 0b3d
000000d0: d9ad 28be df2d 233e 3ab5 41be 1fcc debd
000000e0: b528 f5bd e028 21be 00e5 533d 6b7b 92bd
000000f0: 62be a13d e827 643d 3308 323e b4a2 5fbd
00000100: 5077 7abd 7c03 34be 2892 c5bc 4dff 423e
00000110: 0b28 00be aaed 0ebe f6d9 ec3d 4af1 9d3d
00000120: 2de6 153e a715 07be 12a8 82bd 155c 373e
00000130: e264 f7bd b2a2 09be 5f3b 8fbd 176a 38be
00000140: 60d1 86bd

task_1.bias f4 [3]
0.011599898 0.05391054 0.1137106
00000000: 800d 3e3c 4cd1 5c3d 1ae1 e83d

task_2.weight f4 [3, 3, 3, 3]
-0.07442206 -0.10020291 -0.14795724 -0.006184712 -0.040641993 -0.1616164 0.10709445 0.064877704
-0.10344455 -0.14764316 -0.11849962 -0.100825615 -0.12920846 -0.12610413 0.13324444 -0.15116969
0.08133502 -0.1383216 -0.07892309 -0.06682783 -0.011240169 -0.03932789 0.079092994 0.16018887
0.117786095 0.087241754 0.117549196 -0.12716484 -0.11459354 0.16143645 -0.18664154 -0.17996831
0.17468621 0.021717682 0.09882133 -0.13190846 -0.039671645 -0.10080676 -0.1436394 -0.020769179
-0.17819202 0.05550991 0.11961584 -0.094303325 0.13886051 0.12508921 -0.10639427 -0.16273569
-0.0070210546 -0.1625842 -0.17201687 -0.09200145 -0.15134206 -0.07657502 -0.015906721 0.008547962
-0.16616085 0.15849553 0.12647618 -0.12950432 -0.12412037 0.08324523 0.16760893 -0.13741641
-0.04107952 -0.14916958 -0.07363222 0.19141914 -0.028588668 0.07275163 0.17924948 -0.18254834
-0.030615702 -0.16719289 -0.018922195 -0.17114802 -0.07159799 0.09468524 0.16770153 0.15106316
-0.13970277
00000000: 986a 98bd 2f37 cdbd 1a82 17be 20a9 cabb
00000010: 3878 26bd c57e 25be 5654 db3d 9ade 843d
00000020: bcda d3bd c52f 17be eeaf f2bd a97d cebd
00000030: 394f 04be 7121 01be 3b71 083e 3acc 1abe
00000040: fa92 a63d 2da4 0dbe 6ea2 a1bd 08dd 88bd
00000050: b028 38bc 4816 21bd 82fb a13d 8d08 243e
00000060: d639 f13d ceab b23d a2bd f03d 8037 02be
00000070: 05b0 eabd 994f 253e f61e 3fbe 9d49 38be
00000080: f1e0 323e 48e9 b13c d662 ca3d 0313 07be
00000090: bc7e 22bd c673 cebd 3516 13be 2024 aabc
000000a0: f877 36be 5c5e 633d 26f9 f43d 1a22 c1bd
000000b0: 7331 0e3e 6317 003e 3de5 d9bd 2fa4 26be
000000c0: e010 e6bb 797c 26be 3125 30be 426b bcbd
000000d0: 6af9 1abe 5dd3 9cbd d04e 82bc c00c 0c3c
000000e0: 1226 2abe a74c 223e f982 013e c89c 04be
000000f0: d232 febd 7a7c aa3d ada1 2b3e e3b6 0cbe
00000100: 0043 28bd e9bf 18be 7dcc 96bd 6103 443e
00000110: c832 eabc cefe 943d 2d8d 373e f4ed 3abe
00000120: c8cd fabc 9d34 2bbe b802 9bbc 6d41 2fbe
00000130: f8a1 92bd 56ea c13d f3b9 2b3e 4db0 1a3e
00000140: 3e0e 0fbe

task_2.bias f4 [3]
-0.12304201 -0.037618995 -0.027084649
00000000: 73fd fbbd 6016 1abd a0e0 ddbc

task_3.weight f4 [3, 3, 3, 3]
-0.05033517 -0.13042918 0.17019366 0.14537613 0.012337312 0.015085086 -0.13163164 0.054659456
0.07432659 -0.19124378 0.0673949 -0.13327456 0.010804027 -0.14772755 -0.021911055 -0.11027029
-0.1109315 0.060095653 -0.049191684 -0.05186388 0.07907973 -0.16015679 -0.124455094 0.11505614
0.18236618 -0.08986499 -0.13821042 0.10123192 0.18056785 -0.049728826 -0.16843992 0.033376664
0.0836633 -0.1471265 0.06891735 -0.12547255 -0.13060287 0.02607964 -0.0066004843 0.13131593
-0.10189677 0.056474715 0.06943108 -0.18597086 -0.039657176 0.013552502 -0.1145807 0.15612231
-0.18965116 0.10593532 -0.04955384 -0.16500555 -0.098631665 0.100418255 -0.013601944 0.068220034
0.18703686 0.121134 0.09281255 0.18127753 0.026165277 -0.09675693 -0.10473154 0.10918136
-0.07939184 -0.14606537 -0.038522676 -0.17223585 -0.11613844 0.11873217 -0.08288976 0.0026491135
-0.17742473 -0.05827619 0.069781795 0.052262336 0.008577749 -0.04559906 -0.15593465 0.059182093
0.022351474
00000000: 402c 4ebd 3a8f 05be 3f47 2e3e 7bdd 143e
00000010: 7022 4a3c 7027 773c 72ca 06be 98e2 5f3d
00000020: 8a38 983d 69d5 43be 5606 8a3d 2079 08be
00000030: 6003 313c e445 17be d07e b3bc 64d5 e1bd
00000040: 0e30 e3bd dc26 763d 387d 49bd 386f 54bd
00000050: 8ef4 a13d 2400 24be 50e2 febd 8ea2 eb3d
00000060: 33be 3a3e 230b b8bd 0887 0dbe ae52 cf3d
00000070: c7e6 383e 74b0 4bbd 847b 2cbe f8b5 083d
00000080: aa57 ab3d 54a8 16be 8a24 8d3d e07b 00be
00000090: c2bc 05be f8a4 d53c e048 d8bb af77 063e
000000a0: 41af d0bd 0852 673d e231 8e3d 256f 3ebe
000000b0: 906f 22bd 500b 5e3c 49a9 eabd 87de 1f3e
000000c0: ea33 42be 9ef4 d83d f8f8 4abd 37f7 28be
000000d0: 66ff c9bd 16a8 cd3d b0da 5ebc f2b6 8b3d
000000e0: 9786 3f3e 1a15 f83d 8214 be3d d1a0 393e
000000f0: 9058 d63c 7f28 c6bd 7d7d d6bd 7a9a df3d
00000100: 3098 a2bd 2992 15be f4c9 1dbd 985e 30be
00000110: fed9 edbd da29 f33d 1bc2 a9bd c09c 2d3b
00000120: d4ae 35be 04b3 6ebd c2e9 8e3d 0811 563d
00000130: b089 0c3c 14c6 3abd 55ad 1fbe ec68 723d
00000140: 701a b73c

task_3.bias f4 [3]
0.115677044 -0.17873968 0.1267957
00000000: 16e8 ec3d 8907 37be bbd6 013e

task_4.weight f4 [3, 3, 3, 3]
0.14776467 -0.12554449 0.08989717 0.089772895 0.062741235 -0.030160025 0.07941492 0.12464492
-0.14300437 -0.1694645 -0.08759467 0.08583246 0.07583724 0.14616077 -0.07458369 -0.03257753
-0.15270725 -0.090908274 0.09397979 -0.19127575 -0.07490334 -0.0900427 -0.18549809 -0.010243446
-0.027491003 -0.15201283 -0.18067248 -0.045447916 -0.013604 -0.056045726 0.17397217 -0.0872053
-0.109144054 0.015237629 0.11342229 -0.021584764 -0.04020828 -0.13636151 -0.036324114 0.12429555
0.06500073 0.033273906 0.038512632 0.0077043325 -0.0023795068 -0.06433982 0.0823807 0.072240725
0.13068949 -0.10444898 -0.12975737 0.081354246 0.10732259 -0.04357107 -0.14428769 0.059079424
-0.09542066 -0.097644456 -0.12412627 0.08602525 0.11938594 -0.14691414 -0.12710473 -0.06480776
0.14813684 0.15730138 0.08951108 -0.13101059 0.17459281 -0.0920249 0.16617171 -0.016407445
0.17792927 -0.00020200014 0.044166267 -0.13724285 -0.1921254 0.05935909 -0.0531898 -0.041058093
0.033480838
00000000: 9f4f 173e bc8e 00be 021c b83d dada b73d
00000010: 7a7e 803d 2812 f7bc 4aa4 a23d d645 ff3d
00000020: bd6f 12be 1a88 2dbe d664 b3bd eec8 af3d
00000030: 8e50 9b3d 2bab 153e 55bf 98bd 0470 05bd
00000040: 4a5f 1cbe 1e2e babd 7a78 c03d cadd 43be
00000050: ec66 99bd 4f68 b8bd 36f3 3dbe 20d4 27bc
00000060: d034 e1bc 40a9 1bbe 3502 39be 9827 3abd
00000070: 50e3 5ebc 3490 65bd c325 323e b198 b2bd
00000080: eb86 dfbd 40a7 793c f249 e83d 88d2 b0bc
00000090: 70b1 24bd 5aa2 0bbe 98c8 14bd aa8e fe3d
000000a0: 1a1f 853d 384a 083d 6cbf 1d3d a074 fc3b
000000b0: 80f1 1bbb 98c4 83bd 36b7 a83d f2f2 933d
000000c0: 77d3 053e 59e9 d5bd 1edf 04be 0e9d a63d
000000d0: f2cb db3d 9477 32bd 27c0 13be 44fd 713d
000000e0: e86b c3bd d1f9 c7bd ea35 febd 022e b03d
000000f0: 9e80 f43d a970 16be be27 02be eeb9 84bd
00000100: 2fb1 173e 9d13 213e 9651 b73d a427 06be
00000110: 75c8 323e 8d77 bcbd eb28 2a3e e868 86bc
00000120: 1733 363e 00d0 53b9 b0e7 343d 6489 0cbe
00000130: 85bc 44be 8422 733d 8cdd 59bd 882c 28bd
00000140: 3423 093d

task_4.bias f4 [3]
0.09643723 0.021668106 0.05236076
00000000: e280 c53d 5081 b13c 3c78 563d

task_5.weight f4 [3, 3, 3, 3]
0.03990762 0.13626556 -0.09342667 0.0927598 -0.040534243 0.039260924 0.15532337 0.16899212
-0.088804305 0.18097468 -0.04045318 -0.017621562 0.13312624 0.15520848 -0.098051906 -0.09026558
-0.06582782 -0.11314268 0.05945821 0.16058962 0.09711294 -0.09568309 0.13887669 0.049162015
0.15695833 -0.08861173 -0.15543348 -0.18526553 -0.06571196 0.1452773 -0.084487796 -0.07606901
-0.117237635 -0.11760767 -0.041096672 0.17685191 0.1423613 -0.11675618 0.011989221 0.069597796
-0.03622374 -0.1921353 0.15758432 -0.13374911 -0.03858389 0.11303224 -0.071213074 0.1581765
-0.18760303 -0.14272402 -0.1659972 0.11759217 -0.017755836 0.17257501 -0.08173099 -0.16425875
0.12983038 0.04437089 -0.08609829 0.0038212836 0.12472077 0.024146944 -0.17860113 0.0609975
-0.18991649 0.038174853 0.1503795 0.16567166 0.097111866 0.16387056 -0.09969429 -0.1864083
-0.11311836 0.006444916 0.06375004 0.1696731 0.046264693 0.16707872 0.09947662 -0.18950579
0.084185705
00000000: 2c76 233d 3389 0b3e 7b56 bfbd daf8 bd3d
00000010: 3c07 26bd 10d0 203d 170d 1f3e 450c 2d3e
00000020: 08df b5bd 6d51 393e 3cb2 25bd 185b 90bc
00000030: 3f52 083e f9ee 1e3e 70cf c8bd 29dd b8bd
00000040: bcd0 86bd 59b7 e7bd 748a 733d 9b71 243e
00000050: 26e3 c63d 7ff5 c3bd b135 0e3e 1c5e 493d
00000060: afb9 203e 117a b5bd f429 1fbe 3fb6 3dbe
00000070: fe93 86bd 93c3 143e f007 adbd 12ca 9bbd
00000080: 491a f0bd 4adc f0bd fc54 28bd ab18 353e
00000090: 29c7 113e dd1d efbd 706e 443c 4a89 8e3d
000000a0: 585f 14bd 1ebf 44be c95d 213e 87f5 08be
000000b0: 240a 1ebd 727d e73d 29d8 91bd 05f9 213e
000000c0: 021b 40be 3f26 12be 2cfb 29be 2ad4 f03d
000000d0: b074 91bc 81b7 303e 9462 a7bd 7233 28be
000000e0: 41f2 043e 40be 353d 4d54 b0bd 806e 7a3b
000000f0: 9a6d ff3d d0cf c53c 37e3 36be 84d8 793d
00000100: 7879 42be 3c5d 1c3d 15fd 193e d5a5 293e
00000110: 96e2 c63d afcd 273e 852c ccbd d1e1 3ebe
00000120: 99aa e7bd e02f d33b 628f 823d c9be 2d3e
00000130: 0c80 3d3d af16 2b3e 66ba cb3d ce0d 42be
00000140: 8e69 ac3d

task_5.bias f4 [3]
0.016560197 0.024184868 -0.12316273
00000000: 40a9 873c 581f c63c be3c fcbd

task_6.weight f4 [3, 3, 3, 3]
-0.18822716 -0.007627398 -0.1752643 0.09293063 -0.05535896 0.14130317 -0.052832395 0.07466473
-0.009268686 -0.08254168 0.0484062 -0.06285451 0.07191022 -0.14489043 -0.015740767 -0.103071004
0.10075416 0.027378008 -0.11771299 0.15245824 -0.08656761 0.12453012 -0.11200768 -0.1679737
0.03307703 0.11608656 -0.15878427 -0.14621554 0.018016726 -0.18000041 0.005844876 -0.09011669
-0.00077319145 -0.088660456 0.18060125 0.09094657 0.0048891753 -0.010734975 0.069921985 -0.08333118
-0.08225911 0.10502134 -0.1843571 -0.089159094 0.10948841 -0.095229186 0.09567414 0.1763338
-0.08731354 0.07683815 0.07318933 -0.012505889 0.11787294 -0.16959557 0.02295506 -0.08534215
-0.15171522 0.05725999 -0.18341005 0.05504079 0.020673484 0.09152742 0.037801266 0.13815208
-0.048783258 0.04631032 -0.14858289 0.1778964 -0.14996609 -0.13086605 0.18079598 -0.084199116
0.1560023 0.012332976 0.14525135 -0.14278762 -0.032601 0.05609536 0.040080085 -0.06209846
-0.1111809
00000000: 9fbe 40be 40ef f9bb 7c78 33be 6a52 be3d
00000010: 14c0 62bd c7b1 103e c866 58bd d2e9 983d
00000020: b0db 17bc 9d0b a9bd 9445 463d deb9 80bd
00000030: aa45 933d 285e 14be c8f2 80bc e416 d3bd
00000040: 3258 ce3d d847 e03c 8213 f1bd 031e 1c3e
00000050: 5c4a b1bd a609 ff3d 4864 e5bd 4c01 2cbe
00000060: c87b 073d cabe ed3d 5898 22be 87b9 15be
00000070: d097 933c 0752 38be 6086 bf3b 198f b8bd
00000080: 00b0 4aba 9d93 b5bd 89ef 383e 3242 ba3d
00000090: 6035 a03b c0e1 2fbc 4233 8f3d 8aa9 aabd
000000a0: 7777 a8bd 6e15 d73d 1cc8 3cbe 0b99 b6bd
000000b0: 763b e03d 8507 c3bd cef0 c33d d990 343e
000000c0: 71d1 b2bd 525d 9d3d 4ae4 953d 80e5 4cbc
000000d0: 5e67 f13d 76aa 2dbe 400c bc3c ddc7 aebd
000000e0: 3c5b 1bbe 7489 6a3d d8cf 3bbe 7472 613d
000000f0: 705b a93c ba72 bb3d 80d5 1a3d bd77 0d3e
00000100: f4d0 47bd e4af 3d3d 1d26 18be 792a 363e
00000110: b690 19be c001 06be 9522 393e 9670 acbd
00000120: 11bf 1f3e 4010 4a3c c5bc 143e eb36 12be
00000130: a088 05bd 40c4 653d 042b 243d f45a 7ebd
00000140: d0b2 e3bd

task_6.bias f4 [3]
-0.028633222 0.0828218 -0.14641456
00000000: 3890 eabc 7a9e a93d b3ed 15be

task_7.weight f4 [3, 3, 3, 3]
-0.13197598 0.02344209 0.092943 0.03324169 0.012531564 0.10827111 0.12850378 -0.015009463
0.04267913 -0.06796529 0.00978522 -0.008164331 0.06862946 0.03177972 -0.061751857 0.14322378
0.063176796 -0.15049 -0.055269852 -0.082085624 -0.19048193 -0.01962021 0.004038915 -0.04834217
-0.14535403 -0.10399065 -0.0849955 -0.15938438 0.18301694 0.17413042 0.13326718 -0.11760707
-0.1554946 -0.021969065 -0.07904794 -0.12418502 0.16790225 0.13892575 -0.0014028251 -0.03357476
0.15888809 -0.06329137 -0.17605859 0.05489035 0.11730434 0.16060473 0.13975509 0.0075481236
0.0967689 0.004502997 0.062727466 0.1139157 -0.109234236 0.11764391 0.08947007 0.025531232
0.0027788728 -0.16711748 0.06097178 -0.07938021 -0.009587005 0.17168958 -0.009466246 0.067294225
0.16952403 -0.0071648806 -0.13980651 0.04865913 0.13719042 -0.19233559 0.09204556 0.09925307
-0.16050431 -0.019464746 -0.13451739 0.103560105 0.14540823 -0.17376715 -0.063816145 0.1353731
-0.00785692
00000000: b624 07be a009 c03c e658 be3d 7028 083d
00000010: 3051 4d3c 3ebd dd3d 7f96 033e 40ea 75bc
00000020: 50d0 2e3d 6331 8bbd 3052 203c b0c3 05bc
00000030: 9a8d 8c3d 742b 023d 84ef 7cbd 41a9 123e
00000040: d662 813d 0d1a 1abe a462 62bd 821c a8bd
00000050: b20d 43be 90ba a0bc e058 843b 7002 46bd
00000060: b0d7 14be 0df9 d4bd 1f12 aebd a935 23be
00000070: cb68 3b3e 3f4f 323e 3177 083e fadb f0bd
00000080: fa39 1fbe 78f8 b3bc e3e3 a1bd b754 febd
00000090: 91ee 2b3e 8d42 0e3e 00df b7ba b085 09bd
000000a0: 8fb3 223e e89e 81bd b448 34be b4d4 603d
000000b0: 423d f03d 9175 243e f51b 0f3e 4056 f73b
000000c0: c62e c63d e08d 933b 4277 803d a24c e93d
000000d0: 33b6 dfbd 4aef f03d 163c b73d e026 d13c
000000e0: c01d 363b d820 2bbe 8cbd 793d 1792 a2bd
000000f0: d012 1dbc 65cf 2f3e 5018 1bbc 8ed1 893d
00000100: b597 2d3e 60c7 eabb 7029 0fbe cc4e 473d
00000110: a57b 0c3e 9ff3 44be 6282 bc3d 3245 cb3d
00000120: 3e5b 24be 8874 9fbc edbe 09be 5217 d43d
00000130: e5e5 143e 04f0 31be 0ab2 82bd 3f9f 0a3e
00000140: 50ba 00bc

task_7.bias f4 [3]
-0.06761065 -0.12087197 -0.058326304
00000000: 7477 8abd b98b f7bd 90e7 6ebd

task_8.weight f4 [3, 3, 3, 3]
0.108686194 0.034517482 -0.07358021 -0.061919123 -0.087108 -0.11001252 -0.11615735 0.077312484
0.019485414 -0.054821536 0.18309148 -0.056520686 0.0151322335 -0.17072718 -0.08533547 0.12930094
0.01643826 0.0641381 0.1892141 0.15343235 -0.09509943 -0.05974637 0.11912055 -0.14448744
-0.10851233 -0.013748601 0.015668407 -0.022367463 0.082830444 0.0121020675 0.0015579164 -0.13153751
-0.019009888 0.12190409 -0.06891781 -0.17986844 0.073858574 -0.011539012 0.108820304 -0.07932308
0.15204601 -0.056507543 0.003529504 0.10817157 0.16107796 -0.024696976 0.14115219 -0.09260374
-0.08092571 0.17424478 -0.0758231 0.13065897 0.059251145 0.027278677 -0.11372274 -0.17567165
0.004355073 0.16646387 0.11528741 -0.043670565 -0.11256016 0.020074964 0.057127684 0.06500532
-0.12786189 0.12991245 -0.036092877 0.028872415 0.19003217 0.06126 -0.13470799 -0.041650847
0.033973053 -0.028875545 0.0059675425 -0.043170318 -0.18183216 -0.032574147 -0.03659989 0.15448646
0.07989918
00000000: de96 de3d 3462 0d3d 39b1 96bd e89e 7dbd
00000010: ae65 b2bd 3e4e e1bd e8e3 edbd 0256 9e3d
00000020: e09f 9f3c 8c8c 60bd 557c 3b3e 3c82 67bd
00000030: 30ed 773c 1bd3 2ebe 5dc4 aebd 7767 043e
00000040: 88a9 863c d65a 833d 57c1 413e 5f1d 1d3e
00000050: 7dc3 c2bd 9cb8 74bd 7af5 f33d 84f4 13be
00000060: b63b debd d041 61bc 085b 803c f83b b7bc
00000070: 02a3 a93d c047 463c 0033 cc3a c5b1 06be
00000080: a0ba 9bbc daa8 f93d c824 8dbd 6f2f 38be
00000090: 2a43 973d 200e 3dbc 2edd de3d 2474 a2bd
000000a0: f3b1 1b3e 7474 67bd 404f 673b 0e89 dd3d
000000b0: 9ff1 243e 5051 cabc 338a 103e 08a7 bdbd
000000c0: 61bc a5bd 396d 323e 2449 9bbd 77cb 053e
000000d0: 54b1 723d 8877 df3c 78e7 e8bd 45e3 33be
000000e0: 00b5 8e3b 8175 2a3e ce1b ec3d e8df 32bd
000000f0: f185 e6bd 4074 a43c b8fe 693d 8221 853d
00000100: 3aee 02be c507 053e 20d6 13bd d885 ec3c
00000110: cb97 423e c4eb 7a3d e4f0 09be 149a 2abd
00000120: 5427 0b3d 688c ecbc 608b c33b 5cd3 30bd
00000130: 3632 3abe 786c 05bd c4e9 15bd b331 1e3e
00000140: 2ea2 a33d

task_8.bias f4 [3]
-0.05215028 -0.11076831 0.017224416
00000000: 889b 55bd 7fda e2bd 381a 8d3c

task_9.weight f4 [3, 3, 3, 3]
-0.10406519 -0.07564713 0.04521887 -0.18350968 -0.09898816 -0.0045787543 0.04931973 0.13734551
0.17991318 -0.02200903 -0.16200304 0.05924593 -0.059774637 0.10719077 0.052731976 -0.11068889
0.1855735 -0.02530028 -0.10074885 0.07550119 -0.0039081126 -0.16757244 0.01848942 0.14916314
0.033127308 0.014573365 -0.052298993 0.14165874 -0.16974345 0.07511385 -0.011515066 -0.18221003
0.040089488 0.016084015 0.034034148 -0.13487656 -0.12827554 -0.034954846 -0.025282025 0.1632428
-0.057844013 0.11982392 -0.06862349 -0.067698225 -0.09757843 -0.058297098 -0.11443655 0.1650636
0.1719264 0.039691284 -0.12405051 0.1362067 -0.06476353 -0.102740414 -0.07739693 -0.18829636
-0.080250114 -0.07288384 -0.020181343 0.09576987 0.056936324 -0.10746774 -0.04298787 -0.12764749
0.045698628 -0.1465461 -0.08335504 -0.13039927 0.18581887 0.11459817 -0.03263004 0.009410232
0.03923373 -0.029008389 0.08785872 -0.037161604 0.1300313 -0.061936617 -0.085693 0.10078628
0.09849425
00000000: 2120 d5bd e2ec 9abd 6c37 393d f6e9 3bbe
00000010: 4eba cabd 6009 96bb 7c03 4a3d 4da4 0c3e
00000020: 293b 383e 484c b4bc 20e4 25be dcab 723d
00000030: 40d6 74bd d686 db3d 7cfd 573d dbb0 e2bd
00000040: fb06 3e3e 8842 cfbc 6a55 cebd 5ea0 9a3d
00000050: a00f 80bb 1c98 2bbe 2077 973c 39be 183e
00000060: 80b0 073d 20c5 6e3c 7837 56bd fd0e 113e
00000070: 3ad1 2dbe 4ad5 993d b0a9 3cbc 4495 3abe
00000080: e034 243d a0c2 833c 6467 0b3d 151d 0abe
00000090: aa5a 03be d02c 0fbd 401c cfbc 1f29 273e
000000a0: d8ed 6cbd 3e66 f53d 798a 8cbd 5ea5 8abd
000000b0: 33d7 c7bd f0c8 6ebd b65d eabd 6f06 293e
000000c0: 790d 303e 5493 223d 320e febd c579 0b3e
000000d0: bea2 84bd 9169 d2bd 4882 9ebd c3d0 40be
000000e0: 2c5a a4bd 1f44 95bd 5853 a5bc fe22 c43d
000000f0: 1036 693d 0c18 dcbd 0c14 30bd 06b6 02be
00000100: 7c2e 3b3d 2e10 16be 0cb6 aabd 6387 05be
00000110: 4d47 3e3e 72b2 ea3d 14a7 05bd 602d 1a3c
00000120: 8cb3 203d 00a3 edbc 46ef b33d c436 18bd
00000130: ed26 053e 40b1 7dbd d07f afbd 0a69 ce3d
00000140: 5ab7 c93d

task_9.bias f4 [3]
0.052190408 0.0774679 0.08724736
00000000: 9cc5 553d 7ea7 9e3d beae b23d

task_10.weight f4 [3, 3, 3, 3]
0.0300906 -0.15851608 -0.1381144 -0.13285482 0.17538436 -0.139373 -0.023109064 0.08131911
0.14545588 0.08956052 0.0051696897 -0.12554392 0.13885464 0.110829875 -0.17688482 -0.14006868
0.06629197 0.07649778 0.1736068 0.13630234 0.04086052 -0.18860212 -0.011448413 -0.16399081
-0.03931862 0.188065 0.05170946 0.053872824 -0.18577833 -0.11959291 0.05953805 0.008573249
0.11419146 0.040486127 0.062113717 -0.013486803 -0.01209572 0.08577533 -0.096331015 0.12859748
0.17770262 0.12798725 0.05771567 0.06155856 -0.09837509 -0.101340756 0.1885872 -0.15214922
-0.15329336 0.17340629 -0.08775575 0.1514049 -0.09748109 0.05614528 0.07131113 -0.04068187
0.1453027 0.05057873 0.032001436 0.05351861 0.08801447 -0.020195156 0.1251844 -0.096788384
0.107939705 0.018681258 0.06985624 -0.060919985 0.15575235 0.05581206 0.16798972 -0.12116863
-0.009828255 -0.067128465 -0.07883479 0.023548335 -0.1666253 0.14500235 -0.058592513 -0.0042918473
-0.035527542
00000000: 9080 f63c 0a52 22be dc6d 0dbe 180b 08be
00000010: f597 333e ccb7 0ebe 384f bdbc a28a a63d
00000020: 63f2 143e 826b b73d 8066 a93b 968e 00be
00000030: e92f 0e3e c6fa e23d 4b21 35be 2a6e 0fbe
00000040: 16c4 873d deaa 9c3d fbc5 313e d792 0b3e
00000050: 5c5d 273d ea20 41be 2092 3bbc 35ed 27be
00000060: 900c 21bd 1d94 403e 4ccd 533d c0a9 5c3d
00000070: ad3c 3ebe 21ed f4bd 2cde 733d d076 0c3c
00000080: 36dd e93d c8d4 253d f46a 7e3d c0f7 5cbc
00000090: 202d 46bc faaa af3d 3249 c5bd 0faf 033e
000000a0: adf7 353e 170f 033e 4467 6c3d d424 7c3d
000000b0: e178 c9bd be8b cfbd 011d 413e 01cd 1bbe
000000c0: eff8 1cbe 6b91 313e 49b9 b3bd e309 1b3e
000000d0: 2aa4 c7bd 98f8 653d 920b 923d 08a2 26bd
000000e0: 3bca 143e a42b 4f3d f013 033d 5436 5b3d
000000f0: ee40 b43d 5070 a5bc 5730 003e fd38 c6bd
00000100: 7e0f dd3d 7009 993c ca10 8f3d 3c87 79bd
00000110: 8b7d 1f3e 309b 643d 7f05 2c3e 4227 f8bd
00000120: b006 21bc a67a 89bd 2274 a1bd 70e8 c03c
00000130: d39f 2abe 7f7b 143e b4fe 6fbd a0a2 8cbb
00000140: 5485 11bd

task_10.bias f4 [3]
0.18885224 -0.15131775 0.053095415
00000000: 7b62 413e 0af3 1abe 947a 593d

task_11.weight f4 [3, 3, 3, 3]
0.0715348 0.08763908 -0.10096976 0.010902762 -0.045953944 0.04688756 0.078752026 0.11838509
0.115910366 -0.13140804 -0.13295355 -0.076807305 0.020144105 -0.073984675 -0.10310771 0.18901293
0.03252481 -0.07170396 0.009456441 -0.08783132 0.105354324 0.08167918 0.12554665 0.041426077
-0.11242836 0.091126695 0.032244757 -0.15601489 -0.06611721 0.09648259 -0.16406378 0.12981094
0.09403245 0.006434545 0.014931142 -0.18258357 -0.19151555 -0.14555743 -0.16779223 -0.11898716
-0.089475326 -0.13688211 -0.16328537 -0.029604554 0.013754234 0.043147564 0.01210703 -0.15052214
0.1462421 -0.15859708 -0.07877172 0.02912733 -0.14655045 -0.052629843 -0.045579836 -0.037312165
-0.18937817 0.10449688 0.15195535 0.14942719 -0.07641741 0.01482977 -0.0470912 -0.03411755
0.057591185 -0.06380735 -0.086348906 -0.07675738 0.10463379 0.12856893 0.07053487 -0.17383505
-0.017742991 -0.09574489 0.032020435 -0.17042416 0.12011702 -0.06775427 -0.08948042 -0.18501237
-0.15096997
00000000: d680 923d 1e7c b33d 3cc9 cebd 80a1 323c
00000010: 343a 3cbd 2c0d 403d be48 a13d e273 f23d
00000020: 6a62 ed3d d48f 06be fa24 08be 264d 9dbd
00000030: 4005 a53c 4785 97bd 232a d3bd 9b8c 413e
00000040: bc38 053d 87d9 92bd 30ef 1a3c e8e0 b3bd
00000050: 02c4 d73d 6a47 a73d 4d8f 003e 64ae 293d
00000060: d740 e6bd a2a0 ba3d 1413 043d 5ec2 1fbe
00000070: 7668 87bd aa98 c53d 5600 28be 29ed 043e
00000080: 1694 c03d e0d8 d23b c0a1 743c 30f7 3abe
00000090: a71c 44be 020d 15be bad1 2bbe 8aaf f3bd
000000a0: d73e b7bd d32a 0cbe 4834 27be 4085 f2bc
000000b0: 7059 613c 80bb 303d 905c 463c 7a22 1abe
000000c0: 7dc0 153e 4667 22be 1153 a1bd 709c ee3c
000000d0: 5211 16be 6492 57bd ecb1 3abd a4d4 18bd
000000e0: 5aec 41be 7602 d63d 2f9a 1b3e 7103 193e
000000f0: bb80 9cbd 90f8 723c b4e2 40bd d8be 0bbd
00000100: bce4 6b3d 6ead 82bd b2d7 b0bd f932 9dbd
00000110: 3e4a d63d 93a7 033e 9674 903d d101 32be
00000120: c059 91bc e615 c4bd dc27 033d ac83 2ebe
00000130: eaff f53d c0c2 8abd 8341 b7bd e273 3dbe
00000140: df97 1abe

task_11.bias f4 [3]
-0.15099701 0.07552381 -0.079580784
00000000: f69e 1abe 3aac 9a3d 40fb a2bd

task_12.weight f4 [3, 3, 3, 3]
0.006438747 -0.10234506 0.079410896 -0.0541033 -0.0938917 -0.13607153 0.006086692 0.16221897
-0.107707985 -0.08544601 0.13627984 0.060361817 -0.07682552 0.022044301 -0.008875921 0.08734904
0.17072482 0.18946125 -0.080687545 -0.019755453 0.023134366 -0.18569365 -0.017374963 0.11974047
-0.118691854 0.051526472 -0.0075493306 -0.034326077 -0.049813733 0.06345846 0.08348434 0.109768465
-0.17797376 -0.08773964 -0.17082837 0.07251848 -0.057898715 0.16232191 -0.043773785 0.18895854
0.084405676 -0.07817317 0.08571969 -0.18009107 -0.075349785 0.06702773 -0.0067146868 0.15730016
-0.093365096 0.08474831 0.1445904 0.09773885 0.0149564445 0.17204954 0.05339217 0.13744546
0.14457707 0.009836242 -0.17121063 0.038346797 0.08918743 0.008081704 -0.10110404 -0.10259641
-0.18150201 0.1250876 0.079436705 0.14112861 -0.12457524 -0.05308117 -0.18651259 0.05046697
0.054911315 -0.042218283 -0.047104552 -0.020124048 0.067647144 -0.16267909 0.09332992 -0.014563978
0.056224823
00000000: 20fc d23b 499a d1bd 2ea2 a23d 6c9b 5dbd
00000010: 4b4a c0bd 5656 0bbe e072 c73b bb1c 263e
00000020: 0196 dcbd 51fe aebd f18c 0b3e f43d 773d
00000030: b356 9dbd 4096 b43c 506c 11bc 0ee4 b23d
00000040: 7dd2 2e3e 2102 423e 833f a5bd 30d6 a1bc
00000050: 4884 bd3c 7a26 3ebe f055 8ebc 7e3a f53d
00000060: b714 f3bd 6c0d 533d 6060 f7bb 8099 0cbd
00000070: 7c09 4cbd 82f6 813d d6f9 aa3d 4ace e03d
00000080: c13e 36be d7b0 b3bd a2ed 2ebe 9284 943d
00000090: 3427 6dbd b737 263e 244c 33bd 597e 413e
000000a0: e2dc ac3d 4119 a0bd ce8d af3d cb69 38be
000000b0: fd50 9abd d645 893d e006 dcbb 4b13 213e
000000c0: 3336 bfbd 8690 ad3d 810f 143e 4e2b c83d
000000d0: e00b 753c c12d 303e c0b1 5a3d 81be 0c3e
000000e0: 030c 143e 3028 213c d751 2fbe 8811 1d3d
000000f0: e6a7 b63d 2069 043c a30f cfbd 111e d2bd
00000100: aadb 39be f716 003e b6af a23d 0584 103e
00000110: 4e21 ffbd a46b 59bd 28fd 3ebe 74b6 4e3d
00000120: b0ea 603d 14ed 2cbd b4f0 40bd 30db a4bc
00000130: 968a 8a3d 5995 26be c223 bf3d c09d 6ebc
00000140: 004c 663d

task_12.bias f4 [3]
-0.13414267 0.14187284 0.15245475
00000000: b25c 09be 1d47 113e 191d 1c3e

task_13.weight f4 [3, 3, 3, 3]
0.10678415 -0.11670408 0.004401386 -0.03121981 -0.11792573 0.03970991 0.12938704 -0.022112474
0.014426947 0.16192614 0.034838393 -0.19152996 0.16565691 0.0930704 -0.06402746 0.1689174
0.16152595 0.0082036555 -0.15394971 -0.14747812 0.033283696 0.0335242 0.089129284 0.12684022
0.018503696 -0.0888796 -0.09937767 0.029033244 0.08720119 -0.16494416 0.0839438 0.124291435
-0.02934286 -0.16082525 0.040859416 -0.032017514 0.026734337 0.16777675 0.17493851 -0.0012388527
-0.04384142 0.10768251 -0.09205294 -0.111465424 0.17920707 -0.1449177 0.17021237 -0.13375774
-0.0009934306 0.15416323 0.07098989 0.11291228 0.100231454 -0.09325915 0.060755983 -0.07714799
0.112670645 -0.04964955 0.04818839 -0.123826854 0.041451767 -0.080079705 -0.14994581 0.088914916
0.02067411 -0.08648183 -0.12606713 0.13850065 0.06589396 0.144625 0.09143336 -0.08853669
0.16373499 -0.11709322 -0.17166731 0.0072515905 0.032199904 -0.12819186 -0.13542983 -0.14072695
-0.12932888
00000000: a6b1 da3d 8c02 efbd 8039 903b b0c0 ffbc
00000010: 0c83 f1bd dca6 223d 097e 043e 3825 b5bc
00000020: 005f 6c3c f7cf 253e b4b2 0e3d 6e20 44be
00000030: f7a1 293e b29b be3d d420 83bd aff8 2c3e
00000040: 0f67 253e a068 063c fea4 1dbe 8104 17be
00000050: 7c54 083d ac50 093d 6a89 b63d 67e2 013e
00000060: 1095 973c 8206 b6bd 8586 cbbd 20d7 ed3c
00000070: 8a96 b23d 1fe7 28be baea ab3d 828c fe3d
00000080: 7060 f0bc 60af 24be 345c 273d cc24 03bd
00000090: f801 db3c abcd 2b3e 1523 333e 0061 a2ba
000000a0: 1093 33bd a688 dc3d 4086 bcbd fc47 e4bd
000000b0: 0f82 373e 4e65 14be 274c 2e3e caf7 08be
000000c0: 0036 82ba f7dc 1d3e 2663 913d 8e3e e73d
000000d0: 2646 cd3d a7fe bebd 44db 783d c4ff 9dbd
000000e0: debf e63d 545d 4bbd 3061 453d ef98 fdbd
000000f0: 54c9 293d d400 a4bd 658b 19be 0619 b63d
00000100: c05c a93c 631d b1bd be17 01be 1dd3 0d3e
00000110: 6af3 863d 9318 143e 6a41 bb3d b952 b5bd
00000120: 25aa 273e 92ce efbd 8ec9 2fbe c09e ed3b
00000130: 0ce4 033d ba44 03be 1eae 0abe ba1a 10be
00000140: ca6e 04be

task_13.bias f4 [3]
0.061724648 -0.11088204 0.14219616
00000000: fcd2 7c3d 1f16 e3bd df9b 113e

task_14.weight f4 [3, 3, 3, 3]
-0.10581324 -0.011001945 -0.08758237 0.01793985 0.09678967 0.016520187 0.11053468 0.06661801
0.11477812 0.13931243 0.14591016 -0.010791972 0.045922592 0.03754872 0.014378428 -0.17675152
-0.12943277 0.098435625 -0.0029583722 0.10047306 0.037460253 -0.047669172 -0.13475671 -0.09838498
-0.16972053 0.10375588 0.033495262 -0.08037026 -0.14808664 0.058700904 0.04737538 -0.17164312
-0.11461291 0.04380679 -0.06483504 -0.023827583 0.0012827963 0.09886809 -0.019892141 0.02689591
-0.11029023 0.05983083 -0.01332134 0.035733953 0.17709564 -0.122577146 -0.030354306 -0.10480305
0.1915086 0.14595212 0.04093477 0.12066688 -0.10763854 -0.009592742 0.09818669 -0.17745689
0.0541735 -0.15733106 -0.025387943 0.042143703 0.19042464 -0.020911872 0.17578067 -0.12812017
0.08125453 0.17823993 -0.16925472 -0.15432209 -0.18191034 0.07457401 0.007948652 0.17458282
-0.00043800473 -0.10572432 -0.114796646 -0.13091911 -0.07811857 -0.14275305 -0.06408897 0.10083942
-0.14988036
00000000: 9db4 d8bd 8041 34bc 635e b3bd 98f6 923c
00000010: aa39 c63d 5855 873c 0260 e23d 066f 883d
00000020: ca10 eb3d eba7 0e3e 7969 153e d0d0 30bc
00000030: 5419 3c3d b0cc 193d 8093 6b3c 5afe 34be
00000040: 068a 04be 9e98 c93d 40e1 41bb d2c4 cd3d
00000050: ec6f 193d c040 43bd aafd 09be 107e c9bd
00000060: 38cb 2dbe f67d d43d 5432 093d 2a99 a4bd
00000070: 06a4 17be 5c70 703d b00c 423d 37c3 2fbe
00000080: 2cba eabd c06e 333d 3cc8 84bd 1032 c3bc
00000090: 8023 a83a 5a7b ca3d d8f4 a2bc d054 dc3c
000000a0: d8df e1bd 2c11 753d c041 5abc c45d 123d
000000b0: 8f58 353e ba09 fbbd 98a9 f8bc fba2 d6bd
000000c0: d51a 443e 7974 153e 38ab 273d 3220 f73d
000000d0: 9871 dcbd e02a 1dbc 1a16 c93d 42b7 35be
000000e0: 08e5 5d3d 651b 21be 60fa cfbc e09e 2c3d
000000f0: adfe 423e 604f abbc d9ff 333e ef31 03be
00000100: c668 a63d 8784 363e 1c51 2dbe 9c06 1ebe
00000110: b446 3abe 42ba 983d 103b 023c d7c5 323e
00000120: 00a4 e5b9 fe85 d8bd 811a ebbd a90f 06be
00000130: a1fc 9fbd db2d 12be 1441 83bd e684 ce3d
00000140: 3d7a 19be

task_14.bias f4 [3]
-0.0108165 -0.037903592 0.03416294
00000000: b037 31bc cc40 1bbd 70ee 0b3d

task_15.weight f4 [3, 3, 3, 3]
-0.15371975 -0.1285734 0.14733018 -0.013817042 -0.11647397 -0.17957437 -0.17567757 0.095479116
0.0038039386 -0.035905465 -0.026466891 0.06556873 0.011827499 0.09000297 -0.19164823 -0.0068583935
-0.07543979 0.14425556 -0.16572365 0.09430246 -0.053482473 0.013808072 0.12272827 -0.083402805
0.077416465 0.011836499 -0.14192301 -0.043387234 -0.0997914 -0.09545365 0.11714052 -0.11421069
-0.051027194 -0.13998713 -0.0048190206 0.16455667 -0.09586853 0.07890652 -0.03777732 0.119451985
0.17629786 0.07240163 -0.03860393 0.08163576 -0.1577404 0.07166989 0.121816084 -0.025111496
0.045668304 0.11378695 -0.1431233 -0.028087273 -0.09455231 0.046260178 -0.12859124 0.082130715
-0.19193238 -0.0075408965 -0.060531095 -0.075563714 0.17949505 0.18680759 0.18347113 0.17396559
-0.09438963 0.19023927 -0.02176474 -0.108913004 0.16978027 -0.12710752 0.03342004 -0.068408616
-0.022233784 -0.076921366 0.14743303 0.1879737 0.07039262 -0.096446045 -0.18585627 0.07888363
-0.008361891
00000000: b668 1dbe bfa8 03be b9dd 163e e060 62bc
00000010: e889 eebd 58e2 37be d2e4 33be 8e8a c33d
00000020: 804b 793b 9c11 13bd 18d1 d8bc e648 863d
00000030: 20c8 413c 7a53 b83d 6f3f 44be 60bc e0bb
00000040: 2d80 9abd bbb7 133e 76b3 29be a621 c13d
00000050: 7010 5bbd 403b 623c f658 fb3d 17cf aabd
00000060: 868c 9e3d e0ed 413c 4454 11be d0b6 31bd
00000070: 6f5f ccbd 347d c3bd 5ee7 ef3d 4be7 e9bd
00000080: e401 51bd c958 0fbe e0e8 9dbb 8b81 283e
00000090: b856 c4bd be99 a13d 64bc 1abd 3ea3 f43d
000000a0: 6d87 343e 4e47 943d 281f 1ebd a630 a73d
000000b0: b386 21be aac7 923d b67a f93d a0b6 cdbc
000000c0: b00e 3b3d 2209 e93d ea8e 12be 4817 e6bc
000000d0: a4a4 c1bd 507b 3d3d 6cad 03be 2634 a83d
000000e0: ec89 44be a019 f7bb 74ef 77bd 26c1 9abd
000000f0: 8dcd 373e 7d4a 3f3e dbdf 3b3e 0924 323e
00000100: 5a4f c1bd 15ce 423e f84b b2bc c80d dfbd
00000110: e1da 2d3e 7928 02be 74e3 083d d119 8cbd
00000120: a023 b6bc f388 9dbd aff8 163e 2d7c 403e
00000130: 022a 903d 8185 c5bd 1b51 3ebe be8d a13d
00000140: 5000 09bc

task_15.bias f4 [3]
-0.080313206 0.042087346 0.05547087
00000000: 407b a4bd c863 2c3d 6c35 633d

task_16.weight f4 [3, 3, 3, 3]
-0.005781442 0.012923732 0.08617996 -0.073949486 0.15800218 0.102746025 0.18563615 0.10588126
0.07317896 -0.049487725 -0.12991983 0.01558964 -0.07494839 -0.11354462 0.046887636 0.18777643
0.10299976 -0.149934 0.18483715 0.06578918 -0.037589535 0.053514108 -0.066583365 0.119079635
-0.09553112 0.18702923 -0.10254444 0.05809258 -0.0027786493 -0.08976448 0.15557374 -0.14170283
0.06140749 0.009008184 -0.023765355 -0.00808394 -0.10835834 0.1661971 0.16599943 -0.065886095
0.18817897 -0.044242397 0.035234794 -0.14749476 -0.028423697 -0.17881809 -0.1612514 -0.021778107
0.054871306 -0.12946568 -0.047773287 0.09449978 0.060592458 0.07543881 0.014050186 0.054106474
0.10151471 -0.06488706 -0.09453779 0.15364344 0.0047974586 -0.07662026 -0.029712588 -0.14007662
0.08042477 -0.13278218 -0.1750678 0.16269247 -0.14269792 -0.11863791 -0.12117069 -0.17020032
-0.12771325 0.04797326 -0.030677453 0.07222618 0.008859649 -0.11559963 0.16441102 0.15988643
-0.03997135
00000000: 4072 bdbb 10be 533c 1e7f b03d d472 97bd
00000010: 53cb 213e 826c d23d 6717 3e3e 46d8 d83d
00000020: dade 953d a4b3 4abd b409 05be b06b 7f3c
00000030: 8b7e 99bd 158a e8bd 400d 403d 7748 403e
00000040: 8af1 d23d 4c88 19be f345 3d3e 7abc 863d
00000050: 7cf7 19bd 9c31 5b3d dc5c 88bd 06e0 f33d
00000060: d2a5 c3bd 9784 3f3e d202 d2bd 7cf2 6d3d
00000070: 001a 36bb 71d6 b7bd b94e 1f3e 8c1a 11be
00000080: 6c86 7b3d 1097 133c 90af c2bc 8072 04bc
00000090: faea ddbd 932f 2a3e c1fb 293e 4aef 86bd
000000a0: fdb1 403e 8437 35bd 5c52 103d de08 17be
000000b0: d0d8 e8bc 171c 37be 161f 25be 0068 b2bc
000000c0: bcc0 603d a792 04be ecad 43bd 1a89 c13d
000000d0: cc2f 783d aa7f 9a3d c032 663c c09e 5d3d
000000e0: f2e6 cf3d 82e3 84bd 079d c1bd b554 1d3e
000000f0: 0034 9d3b 15eb 9cbd d067 f3bc 3f70 0fbe
00000100: beb5 a43d 0df8 07be f944 33be db98 263e
00000110: 671f 12be 6ff8 f2bd 5728 f8bd fe48 2ebe
00000120: 43c7 02be 9c7f 443d 484f fbbc 52eb 933d
00000130: 1028 113c 80bf ecbd 5d5b 283e 45b9 233e
00000140: 00b9 23bd

task_16.bias f4 [3]
-0.13166586 -0.13222814 0.06432505
00000000: 6ad3 06be d066 07be dabc 833d

task_17.weight f4 [3, 3, 3, 3]
0.086133495 -0.17040266 0.13233627 -0.15258445 -0.008115217 0.18668814 -0.08981299 0.08300991
-0.016931012 -0.13797086 0.18509357 0.14361785 -0.13795683 0.14934815 0.0037979484 -0.044974267
0.08589886 0.04603401 -0.014326945 -0.16399577 0.04755035 -0.037005275 0.0021814257 -0.124108925
0.088263735 0.027752414 -0.15546227 0.000645265 0.13624339 0.12039818 -0.06618087 -0.13178746
-0.062046334 -0.10994023 -0.19030076 0.008173838 0.10717623 -0.1555145 0.084333405 0.066970035
-0.16580355 0.18249284 -0.06186749 0.16334037 0.13582875 -0.10700358 0.11462538 0.027466744
0.18166651 0.07944475 0.14734773 -0.10715206 0.053858608 -0.07216365 -0.04223883 -0.1612884
-0.15715545 0.028390795 0.0679345 0.025838092 -0.18750966 -0.12732914 -0.07118153 -0.15564126
-0.031447634 -0.16592675 0.00882192 0.02822709 -0.060369015 -0.16996214 -0.023207739 -0.026481211
-0.12979834 -0.013922915 0.15766142 -0.10300569 -0.041366726 0.052633196 -0.14151403 -0.07545582
-0.13035432
00000000: c266 b03d 097e 2ebe 2983 073e 193f 1cbe
00000010: b0f5 04bc 2d2b 3f3e dfef b7bd 1a01 aa3d
00000020: e8b2 8abc 3c48 0dbe 2b89 3d3e 8f10 133e
00000030: 8e44 0dbe b9ee 183e 00e7 783b f036 38bd
00000040: beeb af3d 288e 3c3d 90bb 6abc 82ee 27be
00000050: 28c4 423d d892 17bd 40f6 0e3b d22c febd
00000060: 9ec3 b43d 0859 e33c 8031 1fbe 0027 293a
00000070: 6383 0b3e 5293 f63d d689 87bd 4bf3 06be
00000080: 4c24 7ebd 5828 e1bd 34de 42be 90eb 053c
00000090: 367f db3d 313f 1fbe feb6 ac3d 9627 893d
000000a0: 68c8 29be 67df 3a3e c468 7dbd b342 273e
000000b0: b116 0b3e b124 dbbd b6c0 ea3d f001 e13c
000000c0: c906 3a3e eeb3 a23d 53e2 163e 8a72 dbbd
000000d0: d89a 5c3d 89ca 93bd a002 2dbd c928 25be
000000e0: 5ced 20be d093 e83c 3e21 8b3d 68aa d33c
000000f0: 8802 40be 9262 02be 9fc7 91bd 6c60 1fbe
00000100: 3ccf 00bd b4e8 29be d089 103c 803c e73c
00000110: 8045 77bd 8e0a 2ebe 281e bebc 20ef d8bc
00000120: dbe9 04be f01c 64bc ff71 213e a6f4 d2bd
00000130: 2870 29bd e895 573d 0ee9 10be 9588 9abd
00000140: 9a7b 05be

task_17.bias f4 [3]
-0.106601246 -0.003537476 -0.09925399
00000000: c151 dabd 00d5 67bb ad45 cbbd

task_18.weight f4 [3, 3, 3, 3]
-0.014534324 -0.1738523 -0.08459319 -0.12729107 0.089718536 0.18612675 0.14712013 0.08297433
0.080726996 0.14674924 0.10066314 0.0787694 -0.10992827 0.14558105 -0.13016671 -0.10447844
0.035934538 0.16640429 -0.06943047 0.11850645 -0.14614497 0.1909054 0.176093 0.18984614
0.09930281 -0.17080848 0.11462669 0.084877685 -0.09441978 0.16507848 0.16478105 0.15371312
-0.17202598 -0.15453354 -0.18797891 0.15400876 -0.13352999 -0.1605143 -0.069028325 -0.0035120249
0.06518279 -0.17892542 0.10339801 0.148858 -0.12252832 -0.103799246 -0.09609577 0.07538627
-0.15865208 0.14324377 0.046249047 -0.16721432 -0.17073348 -0.03173451 -0.03078331 0.018479303
-0.15796438 0.11116095 0.013781831 -0.15931024 0.099285826 -0.056382716 0.17166053 0.0064135343
0.13862295 0.16467105 -0.0011842847 -0.14747284 -0.17004289 -0.052490726 -0.028438136 -0.1458702
0.17475565 0.17219643 0.026458591 0.025222048 -0.15731907 -0.18564205 0.019937947 0.09428628
-0.1849546
00000000: 6021 6ebc 5606 32be 323f adbd 9758 02be
00000010: 5abe b73d 0398 3e3e a9a6 163e 72ee a93d
00000020: 3254 a53d 6f45 163e 7a28 ce3d da51 a13d
00000030: 1322 e1bd 3313 153e 6c4a 05be cbf8 d5bd
00000040: 1830 133d e365 2a3e 9031 8ebd 82b3 f23d
00000050: 07a7 15be b57c 433e b951 343e 0767 423e
00000060: 465f cb3d 6be8 2ebe 66c1 ea3d 5ad4 ad3d
00000070: 285f c1bd 550a 293e 5dbc 283e f966 1d3e
00000080: 9427 30be 0a3e 1ebe 8b7d 40be 79b4 1d3e
00000090: 16bc 08be dc5d 24be b95e 8dbd 002a 66bb
000000a0: 8e7e 853d 3a38 37be 56c2 d33d 3b6e 183e
000000b0: 21f0 fabd b394 d4bd dccd c4bd 1e64 9a3d
000000c0: b175 22be 7fae 123e a46f 3d3d 3b3a 2bbe
000000d0: c2d4 2ebe 0cfc 01bd 482d fcbc e861 973c
000000e0: 6ac1 21be 5aa8 e33d 30cd 613c 3922 23be
000000f0: 5e56 cb3d 90f1 66bd c7c7 2f3e a028 d23b
00000100: 2df3 0d3e 879f 283e 003a 9bba 1f03 17be
00000110: b91f 2ebe 8400 57bd 18f7 e8bc ff5e 15be
00000120: 25f3 323e 4354 303e b0bf d83c 789e ce3c
00000130: 4018 21be f318 3ebe e854 a33c 2a19 c13d
00000140: bd64 3dbe

task_18.bias f4 [3]
0.018896475 -0.12928602 -0.035971448
00000000: c8cc 9a3c 8e63 04be cc56 13bd

task_19.weight f4 [3, 3, 3, 3]
0.11982499 0.145602 -0.008740172 -0.11370897 -0.16678634 -0.05489239 0.13241567 0.06113802
0.15567748 0.19234328 -0.1458495 -0.005160123 -0.13444686 -0.1872147 -0.15626457 0.053771123
0.0909539 0.17914997 -0.11274689 0.06726052 -0.065693766 0.022954226 0.0596074 0.14522739
0.0955929 -0.054131866 -0.0316301 0.1640767 0.11259656 -0.14970732 0.16030182 -0.16638368
-0.19109473 -0.10624602 -0.0062347203 0.051196754 0.15119205 -0.1584858 -0.15122473 0.13808446
-0.14932473 0.0046291053 0.016220525 -0.067576766 -0.0797991 -0.15711819 -0.15205672 0.114135906
0.17810206 0.07211156 0.09107582 -0.065213144 -0.1432746 0.054193467 -0.17468804 0.157723
-0.025560558 0.039403155 -0.09144915 -0.04694237 -0.051833466 0.017575562 0.060216352 -0.06351207
0.05023992 0.04749699 0.011644542 0.05049926 -0.019832328 0.10837789 -0.025674805 0.06952189
0.06277235 0.11933653 -0.0066527426 0.12272103 -0.13584623 -0.07748243 0.002428323 -0.035235614
0.084879056
00000000: ce66 f53d b118 153e f032 0fbc 40e0 e8bd
00000010: 0aca 2abe d8d6 60bd f997 073e dc6b 7a3d
00000020: eb69 1f3e a3f5 443e 9259 15be 4016 a9bb
00000030: 70ac 09be 36b5 3fbe d203 20be 1c3f 5c3d
00000040: 0a46 ba3d 1773 373e d7e7 e6bd e2bf 893d
00000050: 748a 86bd 800a bc3c e426 743d 7db6 143e
00000060: 36c6 c33d 60b9 5dbd 908e 01bd b903 283e
00000070: 0699 e63d e04c 19be 2926 243e 7c60 2abe
00000080: 56ae 43be 8397 d9bd a04c ccbb b0b3 513d
00000090: 17d2 1a3e 1a4a 22be a8da 1abe 0366 0d3e
000000a0: 95e8 18be c0af 973b e8e0 843c b065 8abd
000000b0: b66d a3bd 97e3 20be c2b4 1bbe 16c0 e93d
000000c0: 6360 363e 3aaf 933d f685 ba3d 788e 85bd
000000d0: 94b6 12be f8f9 5d3d 6ce1 32be 2382 213e
000000e0: 6064 d1bc 3465 213d b149 bbbd a446 40bd
000000f0: 544f 54bd a0fa 8f3c 6ca5 763d 9e12 82bd
00000100: 60c8 4d3d 348c 423d c0c8 3e3c 50d8 4e3d
00000110: 6877 a2bc 3af5 dd3d f853 d2bc 7e61 8e3d
00000120: ca8e 803d b666 f43d 40ff d9bb 2a55 fb3d
00000130: 461b 0bbe 1caf 9ebd 8024 1f3b 3853 10bd
00000140: 12d5 ad3d

task_19.bias f4 [3]
-0.08910956 -0.13293383 0.0015214533
00000000: 137f b6bd ce1f 08be 806b c73a

task_20.weight f4 [3, 3, 3, 3]
-0.027849212 0.15592279 0.12743886 0.09923519 -0.056519076 -0.14878753 0.13253154 0.11113535
0.00041517615 -0.09538749 -0.07198211 0.16815309 -0.04119365 0.16202973 0.00026968122 -0.027004749
0.1387239 0.047057778 -0.12880883 -0.028892696 0.114318505 -0.18421684 0.047102273 0.093139514
-0.15763602 -0.045731038 -0.08478831 -0.13336706 -0.052112564 0.07669301 -0.03785816 -0.18005739
0.031149581 -0.09283037 -0.124327466 -0.08581397 -0.026505351 -0.07513062 0.13491268 -0.024015933
0.15135063 0.11741309 -0.03255312 0.15186237 0.17591421 -0.13867825 0.057861045 -0.07285401
0.05104111 0.14425631 0.059128657 0.08330034 0.14452972 0.1462463 0.09167354 0.004532844
-0.06561498 -0.16039513 -0.018074915 0.17901452 0.08999474 -0.05914542 0.02172941 -0.17450587
-0.10318975 0.16910909 0.1649857 -0.076089725 -0.12715638 0.14721383 0.1805415 -2.2500753e-06
-0.108938515 0.12884323 -0.03904721 0.106127694 -0.017396659 -0.06737748 -0.12582213 -0.089395694
-0.11484739
00000000: 0824 e4bc 39aa 1f3e 557f 023e d23b cb3d
00000010: 8c80 67bd c25b 18be 59b6 073e ee9a e33d
00000020: 00ac d939 845a c3bd 5b6b 93bd 5330 2c3e
00000030: acba 28bd 1feb 253e 0064 8d39 1039 ddbc
00000040: a30d 0e3e a8bf 403d 76e6 03be 60b0 ecbc
00000050: d21f ea3d 57a3 3cbe 50ee 403d eebf be3d
00000060: 566b 21be 7850 3bbd 7ea5 adbd 6091 08be
00000070: fc73 55bd 3a11 9d3d 2811 1bbd f760 38be
00000080: 682d ff3c d91d bebd 669f febd 3cbf afbd
00000090: c021 d9bc 15de 99bd 8d26 0a3e 10bd c4bc
000000a0: a9fb 1a3e 4676 f03d 6c56 05bd cf81 1b3e
000000b0: db22 343e ac01 0ebe b4ff 6c3d 7c34 95bd
000000c0: 7c10 513d edb7 133e e430 723d 5e99 aa3d
000000d0: 99ff 133e 97c1 153e 56bf bb3d 4088 943b
000000e0: 2661 86bd 9f3e 24be d811 94bc 954f 373e
000000f0: 2a4f b83d 7842 72bd e001 b23c abb1 32be
00000100: 2655 d3bd ef2a 2d3e 03f2 283e eed4 9bbd
00000110: 4835 02be 39bf 163e dfdf 383e 0000 17b6
00000120: 281b dfbd 7bef 033e f8ef 1fbd 7a59 d93d
00000130: 7083 8ebc 34fd 89bd 84d7 00be 1715 b7bd
00000140: 1c35 ebbd

task_20.bias f4 [3]
-0.058941454 -0.1872068 -0.08644026
00000000: 986c 71bd 24b3 3fbe 9707 b1bd

task_21.weight f4 [3, 3, 3, 3]
-0.021496117 -0.17897013 0.0107937455 0.030665532 -0.1745957 0.13995655 0.067337826 0.10450558
0.043317556 0.088251635 0.12260924 -0.18816037 -0.17241809 -0.1613017 0.0042825043 0.032494754
-0.17259361 0.08447622 -0.18389994 -0.04727611 -0.037128195 0.04888603 0.0029150844 -0.09871077
-0.08087397 -0.12081863 -0.1323008 -0.069588035 -0.083367266 0.08324878 -0.17512287 0.064042225
-0.00032040477 0.020944357 0.1829407 -0.18269706 -0.05893153 -0.052461103 -0.008452639 0.14430739
0.07693921 -0.078340255 -0.018147424 -0.11371682 -0.15103523 0.09863959 -0.16545741 0.15591477
-0.091977246 0.15928747 -0.05630134 -0.16072853 0.13956653 -0.00441736 0.124311015 0.05576034
-0.15286581 0.12004034 0.043554753 -0.057495967 -0.09861164 0.0005002469 -0.12666947 -0.010232061
0.08434646 0.111080304 -0.077578425 0.12680142 -0.00030334294 -0.06912963 -0.015218288 0.019448757
0.08890621 -0.124645926 -0.06875238 -0.17803948 0.17777865 0.18450241 0.175635 0.11453952
-0.06285617
00000000: a018 b0bc f243 37be 40d8 303c 4836 fb3c
00000010: 37c9 32be c550 0f3e 6ae8 893d 0607 d63d
00000020: c06d 313d 46bd b43d 8e1a fb3d 1dad 40be
00000030: 5e8e 30be 462c 25be 4054 8c3b 3819 053d
00000040: 61bc 30be de01 ad3d 4450 3cbe 98a4 41bd
00000050: bc13 18bd b83c 483d 000b 3f3b df28 cabd
00000060: 41a1 a5bd c26f f7bd dc79 07be 2c84 8ebd
00000070: 75bc aabd 567e aa3d 6953 33be 9228 833d
00000080: 00fc a7b9 8093 ab3c cf54 3b3e f014 3bbe
00000090: 3062 71bd 74e1 56bd f07c 0abc 51c5 133e
000000a0: 4e92 9d3d db70 a0bd e8a9 94bc 5de4 e8bd
000000b0: fba8 1abe 8e03 ca3d ab6d 29be 1fa8 1f3e
000000c0: 915e bcbd 411c 233e 3c9c 66bd 0596 24be
000000d0: 87ea 0e3e 80bf 90bb c696 fe3d f464 643d
000000e0: db88 1cbe b6d7 f53d 7866 323d e480 6bbd
000000f0: e6f4 c9bd 0023 033a a4b5 01be 60a4 27bc
00000100: d6bd ac3d 127e e33d 70e1 9ebd 3bd8 013e
00000110: 000a 9fb9 d693 8dbd 2056 79bc 0053 9f3c
00000120: 7614 b63d 5d46 ffbd 0cce 8cbd fb4f 36be
00000130: 9b0b 363e 33ee 3c3e a9d9 333e b293 ea3d
00000140: bcba 80bd

task_21.bias f4 [3]
0.004464552 0.17605494 -0.03816332
00000000: 604b 923b bf47 343e 2451 1cbd

task_22.weight f4 [3, 3, 3, 3]
-0.107316345 -0.028626442 0.12483831 -0.026271433 0.0447395 0.009334967 0.002670318 0.16874678
0.06591372 0.18014465 -0.18033153 -0.17820181 0.16711156 -0.086360216 0.09602441 -0.13391793
0.12520678 -0.12141461 0.12936737 0.14205514 0.09832059 0.041060686 0.0654024 -0.0993322
0.12167893 0.070591226 -0.05542822 0.066966996 -0.0377402 -0.036669314 0.08955632 0.1544349
0.16469105 0.12685274 -0.08429573 0.030900091 -0.005144015 -0.17053929 -0.09080173 -0.16778922
0.16867669 -0.026560336 0.12888463 -0.17736547 -0.092161566 0.04337065 0.09932183 0.047158465
-0.07401664 -0.017471433 -0.18712088 -0.16215184 -0.10116506 -0.15416694 -0.14079842 0.13576944
-0.06313841 -0.18004352 0.06268515 0.14734869 -0.07717465 -0.14923127 -0.029510587 0.09463562
0.04724598 -0.15847401 -0.046887204 -0.1655077 0.19046445 -0.06802342 0.18463387 0.15686177
0.01934284 -0.14523983 -0.18873926 -0.10922575 -0.083214246 -0.13101701 -0.026017874 0.09273462
0.1262718
00000000: acc8 dbbd 0082 eabc 3aab ff3d 3037 d7bc
00000010: c440 373d b0f1 183c 8000 2f3b f5cb 2c3e
00000020: c6fd 863d d777 383e d4a8 38be 897a 36be
00000030: 4b1f 2b3e a0dd b0bd 72a8 c43d c821 09be
00000040: 3536 003e 39a8 f8bd e178 043e e776 113e
00000050: 4e5c c93d 402f 283d b2f1 853d ae6e cbbd
00000060: ce32 f93d 2292 903d b408 63bd fe25 893d
00000070: 7895 1abd 9032 16bd 4e69 b73d 2f24 1e3e
00000080: c5a4 283e afe5 013e 3da3 acbd 3022 fd3c
00000090: 208f a8bb daa1 2ebe 42f6 b9bd f0d0 2bbe
000000a0: 95b9 2c3e 1095 d9bc 55fa 033e 4b9f 35be
000000b0: 34bf bcbd 6ca5 313d 3e69 cb3d 3c29 413d
000000c0: 0996 97bd 4020 8fbc 9e9c 3fbe 220b 26be
000000d0: a12f cfbd f0dd 1dbe 762d 10be 2507 0b3e
000000e0: b64e 81bd 545d 38be 1261 803d 93e2 163e
000000f0: be0d 9ebd 15d0 18be 30c0 f1bc 52d0 c13d
00000100: 0085 413d 0347 22be cc0c 40bd da7a 29be
00000110: 1d09 433e dd4f 8bbd a910 3d3e 5fa0 203e
00000120: e074 9e3c c0b9 14be dd44 41be c0b1 dfbd
00000130: 3b6c aabd 5329 06be 7023 d5bc a6eb bd3d
00000140: 654d 013e

task_22.bias f4 [3]
-0.14889331 -0.041284412 0.08677699
00000000: 7d77 18be d819 29bd 22b8 b13d
